Model: "my_net"
_________________________________________________________________
 Layer (type)                Output Shape              Param #   
=================================================================
 conv_1 (Conv2D)             (None, 40, 40, 16)        592       
                                                                 
 relu_1 (Activation)         (None, 40, 40, 16)        0         
                                                                 
 padding_1 (MaxPooling2D)    (None, 20, 20, 16)        0         
                                                                 
 flatten (Flatten)           (None, 6400)              0         
                                                                 
 dense1 (Dense)              (None, 512)               3277312   
                                                                 
 dense2 (Dense)              (None, 2)                 1026      
                                                                 
=================================================================
Total params: 3278930 (12.51 MB)
Trainable params: 3278930 (12.51 MB)
Non-trainable params: 0 (0.00 Byte)
_________________________________________________________________
Model: "my_net"
_________________________________________________________________
 Layer (type)                Output Shape              Param #   
=================================================================
 conv_1 (Conv2D)             (None, 40, 40, 16)        592       
                                                                 
 relu_1 (Activation)         (None, 40, 40, 16)        0         
                                                                 
 padding_1 (MaxPooling2D)    (None, 20, 20, 16)        0         
                                                                 
 flatten (Flatten)           (None, 6400)              0         
                                                                 
 dense1 (Dense)              (None, 512)               3277312   
                                                                 
 dense2 (Dense)              (None, 2)                 1026      
                                                                 
=================================================================
Total params: 3278930 (12.51 MB)
Trainable params: 3278930 (12.51 MB)
Non-trainable params: 0 (0.00 Byte)
_________________________________________________________________
Model: "my_net"
_________________________________________________________________
 Layer (type)                Output Shape              Param #   
=================================================================
 conv_1 (Conv2D)             (None, 40, 40, 16)        592       
                                                                 
 relu_1 (Activation)         (None, 40, 40, 16)        0         
                                                                 
 padding_1 (MaxPooling2D)    (None, 20, 20, 16)        0         
                                                                 
 flatten (Flatten)           (None, 6400)              0         
                                                                 
 dense1 (Dense)              (None, 512)               3277312   
                                                                 
 dense2 (Dense)              (None, 2)                 1026      
                                                                 
=================================================================
Total params: 3278930 (12.51 MB)
Trainable params: 3278930 (12.51 MB)
Non-trainable params: 0 (0.00 Byte)
_________________________________________________________________
Model: "my_net"
_________________________________________________________________
 Layer (type)                Output Shape              Param #   
=================================================================
<<<<<<< HEAD
 conv_1 (Conv2D)             (None, 50, 30, 16)        592       
                                                                 
 relu_1 (Activation)         (None, 50, 30, 16)        0         
                                                                 
 padding_1 (MaxPooling2D)    (None, 25, 15, 16)        0         
                                                                 
 flatten (Flatten)           (None, 6000)              0         
                                                                 
 dense1 (Dense)              (None, 512)               3072512   
=======
 conv_1 (Conv2D)             (None, 40, 40, 16)        592       
                                                                 
 relu_1 (Activation)         (None, 40, 40, 16)        0         
                                                                 
 padding_1 (MaxPooling2D)    (None, 20, 20, 16)        0         
                                                                 
 flatten (Flatten)           (None, 6400)              0         
                                                                 
 dense1 (Dense)              (None, 512)               3277312   
>>>>>>> 7fabc1a4a05c4bde46f5f194ddbbb01853fea7d0
                                                                 
 dense2 (Dense)              (None, 2)                 1026      
                                                                 
=================================================================
<<<<<<< HEAD
Total params: 3074130 (11.73 MB)
Trainable params: 3074130 (11.73 MB)
Non-trainable params: 0 (0.00 Byte)
_________________________________________________________________
Model: "my_net"
_________________________________________________________________
 Layer (type)                Output Shape              Param #   
=================================================================
 conv_1 (Conv2D)             (None, 50, 30, 16)        592       
                                                                 
 relu_1 (Activation)         (None, 50, 30, 16)        0         
                                                                 
 padding_1 (MaxPooling2D)    (None, 25, 15, 16)        0         
                                                                 
 flatten (Flatten)           (None, 6000)              0         
                                                                 
 dense1 (Dense)              (None, 512)               3072512   
                                                                 
 dense2 (Dense)              (None, 2)                 1026      
                                                                 
=================================================================
Total params: 3074130 (11.73 MB)
Trainable params: 3074130 (11.73 MB)
Non-trainable params: 0 (0.00 Byte)
_________________________________________________________________
Model: "my_net"
_________________________________________________________________
 Layer (type)                Output Shape              Param #   
=================================================================
 conv_1 (Conv2D)             (None, 50, 30, 16)        592       
                                                                 
 relu_1 (Activation)         (None, 50, 30, 16)        0         
                                                                 
 padding_1 (MaxPooling2D)    (None, 25, 15, 16)        0         
                                                                 
 flatten (Flatten)           (None, 6000)              0         
                                                                 
 dense1 (Dense)              (None, 512)               3072512   
                                                                 
 dense2 (Dense)              (None, 2)                 1026      
                                                                 
=================================================================
Total params: 3074130 (11.73 MB)
Trainable params: 3074130 (11.73 MB)
Non-trainable params: 0 (0.00 Byte)
_________________________________________________________________
Model: "my_net"
_________________________________________________________________
 Layer (type)                Output Shape              Param #   
=================================================================
 conv_1 (Conv2D)             (None, 50, 30, 16)        592       
                                                                 
 relu_1 (Activation)         (None, 50, 30, 16)        0         
                                                                 
 padding_1 (MaxPooling2D)    (None, 25, 15, 16)        0         
                                                                 
 flatten (Flatten)           (None, 6000)              0         
                                                                 
 dense1 (Dense)              (None, 512)               3072512   
                                                                 
 dense2 (Dense)              (None, 2)                 1026      
                                                                 
=================================================================
Total params: 3074130 (11.73 MB)
Trainable params: 3074130 (11.73 MB)
Non-trainable params: 0 (0.00 Byte)
_________________________________________________________________
Model: "my_net"
_________________________________________________________________
 Layer (type)                Output Shape              Param #   
=================================================================
 conv_1 (Conv2D)             (None, 50, 30, 16)        592       
                                                                 
 relu_1 (Activation)         (None, 50, 30, 16)        0         
                                                                 
 padding_1 (MaxPooling2D)    (None, 25, 15, 16)        0         
                                                                 
 flatten (Flatten)           (None, 6000)              0         
                                                                 
 dense1 (Dense)              (None, 512)               3072512   
                                                                 
 dense2 (Dense)              (None, 2)                 1026      
                                                                 
=================================================================
Total params: 3074130 (11.73 MB)
Trainable params: 3074130 (11.73 MB)
Non-trainable params: 0 (0.00 Byte)
_________________________________________________________________
Model: "my_net"
_________________________________________________________________
 Layer (type)                Output Shape              Param #   
=================================================================
 conv_1 (Conv2D)             (None, 50, 30, 16)        592       
                                                                 
 relu_1 (Activation)         (None, 50, 30, 16)        0         
                                                                 
 padding_1 (MaxPooling2D)    (None, 25, 15, 16)        0         
                                                                 
 flatten (Flatten)           (None, 6000)              0         
                                                                 
 dense1 (Dense)              (None, 512)               3072512   
                                                                 
 dense2 (Dense)              (None, 2)                 1026      
                                                                 
=================================================================
Total params: 3074130 (11.73 MB)
Trainable params: 3074130 (11.73 MB)
=======
Total params: 3278930 (12.51 MB)
Trainable params: 3278930 (12.51 MB)
>>>>>>> 7fabc1a4a05c4bde46f5f194ddbbb01853fea7d0
Non-trainable params: 0 (0.00 Byte)
_________________________________________________________________
Model: "my_net"
_________________________________________________________________
 Layer (type)                Output Shape              Param #   
=================================================================
 conv_1 (Conv2D)             (None, 50, 30, 16)        592       
                                                                 
 relu_1 (Activation)         (None, 50, 30, 16)        0         
                                                                 
 padding_1 (MaxPooling2D)    (None, 25, 15, 16)        0         
                                                                 
 flatten (Flatten)           (None, 6000)              0         
                                                                 
 dense1 (Dense)              (None, 512)               3072512   
                                                                 
 dense2 (Dense)              (None, 2)                 1026      
                                                                 
=================================================================
Total params: 3074130 (11.73 MB)
Trainable params: 3074130 (11.73 MB)
Non-trainable params: 0 (0.00 Byte)
_________________________________________________________________
Model: "my_net"
_________________________________________________________________
 Layer (type)                Output Shape              Param #   
=================================================================
 conv_1 (Conv2D)             (None, 40, 40, 16)        592       
                                                                 
 relu_1 (Activation)         (None, 40, 40, 16)        0         
                                                                 
 padding_1 (MaxPooling2D)    (None, 20, 20, 16)        0         
                                                                 
 flatten (Flatten)           (None, 6400)              0         
                                                                 
 dense1 (Dense)              (None, 512)               3277312   
                                                                 
 dense2 (Dense)              (None, 2)                 1026      
                                                                 
=================================================================
Total params: 3278930 (12.51 MB)
Trainable params: 3278930 (12.51 MB)
Non-trainable params: 0 (0.00 Byte)
_________________________________________________________________
Model: "my_net"
_________________________________________________________________
 Layer (type)                Output Shape              Param #   
=================================================================
 conv_1 (Conv2D)             (None, 40, 40, 16)        592       
                                                                 
 relu_1 (Activation)         (None, 40, 40, 16)        0         
                                                                 
 padding_1 (MaxPooling2D)    (None, 20, 20, 16)        0         
                                                                 
 flatten (Flatten)           (None, 6400)              0         
                                                                 
 dense1 (Dense)              (None, 512)               3277312   
                                                                 
 dense2 (Dense)              (None, 2)                 1026      
                                                                 
=================================================================
Total params: 3278930 (12.51 MB)
Trainable params: 3278930 (12.51 MB)
Non-trainable params: 0 (0.00 Byte)
_________________________________________________________________
Model: "my_net"
_________________________________________________________________
 Layer (type)                Output Shape              Param #   
=================================================================
 conv_1 (Conv2D)             (None, 40, 40, 16)        592       
                                                                 
 relu_1 (Activation)         (None, 40, 40, 16)        0         
                                                                 
 padding_1 (MaxPooling2D)    (None, 20, 20, 16)        0         
                                                                 
 flatten (Flatten)           (None, 6400)              0         
                                                                 
 dense1 (Dense)              (None, 512)               3277312   
                                                                 
 dense2 (Dense)              (None, 2)                 1026      
                                                                 
=================================================================
Total params: 3278930 (12.51 MB)
Trainable params: 3278930 (12.51 MB)
Non-trainable params: 0 (0.00 Byte)
_________________________________________________________________
Model: "my_net"
_________________________________________________________________
 Layer (type)                Output Shape              Param #   
=================================================================
 conv_1 (Conv2D)             (None, 40, 40, 16)        592       
                                                                 
 relu_1 (Activation)         (None, 40, 40, 16)        0         
                                                                 
 padding_1 (MaxPooling2D)    (None, 20, 20, 16)        0         
                                                                 
 flatten (Flatten)           (None, 6400)              0         
                                                                 
 dense1 (Dense)              (None, 512)               3277312   
                                                                 
 dense2 (Dense)              (None, 2)                 1026      
                                                                 
=================================================================
Total params: 3278930 (12.51 MB)
Trainable params: 3278930 (12.51 MB)
Non-trainable params: 0 (0.00 Byte)
_________________________________________________________________
Model: "my_net"
_________________________________________________________________
 Layer (type)                Output Shape              Param #   
=================================================================
 conv_1 (Conv2D)             (None, 40, 40, 16)        592       
                                                                 
 relu_1 (Activation)         (None, 40, 40, 16)        0         
                                                                 
 padding_1 (MaxPooling2D)    (None, 20, 20, 16)        0         
                                                                 
 flatten (Flatten)           (None, 6400)              0         
                                                                 
 dense1 (Dense)              (None, 512)               3277312   
                                                                 
 dense2 (Dense)              (None, 2)                 1026      
                                                                 
=================================================================
Total params: 3278930 (12.51 MB)
Trainable params: 3278930 (12.51 MB)
Non-trainable params: 0 (0.00 Byte)
_________________________________________________________________
Model: "my_net"
_________________________________________________________________
 Layer (type)                Output Shape              Param #   
=================================================================
 conv_1 (Conv2D)             (None, 40, 40, 16)        592       
                                                                 
 relu_1 (Activation)         (None, 40, 40, 16)        0         
                                                                 
 padding_1 (MaxPooling2D)    (None, 20, 20, 16)        0         
                                                                 
 flatten (Flatten)           (None, 6400)              0         
                                                                 
 dense1 (Dense)              (None, 512)               3277312   
                                                                 
 dense2 (Dense)              (None, 2)                 1026      
                                                                 
=================================================================
Total params: 3278930 (12.51 MB)
Trainable params: 3278930 (12.51 MB)
Non-trainable params: 0 (0.00 Byte)
_________________________________________________________________
Model: "my_net"
_________________________________________________________________
 Layer (type)                Output Shape              Param #   
=================================================================
 conv_1 (Conv2D)             (None, 40, 40, 16)        592       
                                                                 
 relu_1 (Activation)         (None, 40, 40, 16)        0         
                                                                 
 padding_1 (MaxPooling2D)    (None, 20, 20, 16)        0         
                                                                 
 flatten (Flatten)           (None, 6400)              0         
                                                                 
 dense1 (Dense)              (None, 512)               3277312   
                                                                 
 dense2 (Dense)              (None, 2)                 1026      
                                                                 
=================================================================
Total params: 3278930 (12.51 MB)
Trainable params: 3278930 (12.51 MB)
Non-trainable params: 0 (0.00 Byte)
_________________________________________________________________
Model: "my_net"
_________________________________________________________________
 Layer (type)                Output Shape              Param #   
=================================================================
 conv_1 (Conv2D)             (None, 40, 40, 16)        592       
                                                                 
 relu_1 (Activation)         (None, 40, 40, 16)        0         
                                                                 
 padding_1 (MaxPooling2D)    (None, 20, 20, 16)        0         
                                                                 
 flatten (Flatten)           (None, 6400)              0         
                                                                 
 dense1 (Dense)              (None, 512)               3277312   
                                                                 
 dense2 (Dense)              (None, 2)                 1026      
                                                                 
=================================================================
Total params: 3278930 (12.51 MB)
Trainable params: 3278930 (12.51 MB)
Non-trainable params: 0 (0.00 Byte)
_________________________________________________________________
Model: "my_net"
_________________________________________________________________
 Layer (type)                Output Shape              Param #   
=================================================================
 conv_1 (Conv2D)             (None, 40, 40, 16)        592       
                                                                 
 relu_1 (Activation)         (None, 40, 40, 16)        0         
                                                                 
 padding_1 (MaxPooling2D)    (None, 20, 20, 16)        0         
                                                                 
 flatten (Flatten)           (None, 6400)              0         
                                                                 
 dense1 (Dense)              (None, 512)               3277312   
                                                                 
 dense2 (Dense)              (None, 2)                 1026      
                                                                 
=================================================================
Total params: 3278930 (12.51 MB)
Trainable params: 3278930 (12.51 MB)
Non-trainable params: 0 (0.00 Byte)
_________________________________________________________________
Model: "my_net2"
_________________________________________________________________
 Layer (type)                Output Shape              Param #   
=================================================================
 conv_2 (Conv2D)             (None, 80, 80, 32)        1184      
                                                                 
 relu_2 (Activation)         (None, 80, 80, 32)        0         
                                                                 
 padding_2 (MaxPooling2D)    (None, 40, 40, 32)        0         
                                                                 
 conv_1 (Conv2D)             (None, 40, 40, 16)        4624      
                                                                 
 relu_1 (Activation)         (None, 40, 40, 16)        0         
                                                                 
 padding_1 (MaxPooling2D)    (None, 20, 20, 16)        0         
                                                                 
 flatten_1 (Flatten)         (None, 6400)              0         
                                                                 
 dense1 (Dense)              (None, 512)               3277312   
                                                                 
 dense2 (Dense)              (None, 2)                 1026      
                                                                 
=================================================================
Total params: 3284146 (12.53 MB)
Trainable params: 1184 (4.62 KB)
Non-trainable params: 3282962 (12.52 MB)
_________________________________________________________________
Model: "my_net2"
_________________________________________________________________
 Layer (type)                Output Shape              Param #   
=================================================================
 conv_2 (Conv2D)             (None, 80, 80, 32)        1184      
                                                                 
 relu_2 (Activation)         (None, 80, 80, 32)        0         
                                                                 
 padding_2 (MaxPooling2D)    (None, 40, 40, 32)        0         
                                                                 
 conv_1 (Conv2D)             (None, 40, 40, 16)        4624      
                                                                 
 relu_1 (Activation)         (None, 40, 40, 16)        0         
                                                                 
 padding_1 (MaxPooling2D)    (None, 20, 20, 16)        0         
                                                                 
 flatten (Flatten)           (None, 6400)              0         
                                                                 
 dense1 (Dense)              (None, 512)               3277312   
                                                                 
 dense2 (Dense)              (None, 2)                 1026      
                                                                 
=================================================================
Total params: 3284146 (12.53 MB)
Trainable params: 1184 (4.62 KB)
Non-trainable params: 3282962 (12.52 MB)
_________________________________________________________________
Model: "my_net2"
_________________________________________________________________
 Layer (type)                Output Shape              Param #   
=================================================================
 conv_2 (Conv2D)             (None, 80, 80, 32)        1184      
                                                                 
 relu_2 (Activation)         (None, 80, 80, 32)        0         
                                                                 
 padding_2 (MaxPooling2D)    (None, 40, 40, 32)        0         
                                                                 
 conv_1 (Conv2D)             (None, 40, 40, 16)        4624      
                                                                 
 relu_1 (Activation)         (None, 40, 40, 16)        0         
                                                                 
 padding_1 (MaxPooling2D)    (None, 20, 20, 16)        0         
                                                                 
 flatten (Flatten)           (None, 6400)              0         
                                                                 
 dense1 (Dense)              (None, 512)               3277312   
                                                                 
 dense2 (Dense)              (None, 2)                 1026      
                                                                 
=================================================================
Total params: 3284146 (12.53 MB)
Trainable params: 3284146 (12.53 MB)
Non-trainable params: 0 (0.00 Byte)
_________________________________________________________________
Model: "my_net2"
_________________________________________________________________
 Layer (type)                Output Shape              Param #   
=================================================================
 conv_2 (Conv2D)             (None, 80, 80, 32)        1184      
                                                                 
 relu_2 (Activation)         (None, 80, 80, 32)        0         
                                                                 
 padding_2 (MaxPooling2D)    (None, 40, 40, 32)        0         
                                                                 
 conv_1 (Conv2D)             (None, 40, 40, 16)        4624      
                                                                 
 relu_1 (Activation)         (None, 40, 40, 16)        0         
                                                                 
 padding_1 (MaxPooling2D)    (None, 20, 20, 16)        0         
                                                                 
 flatten (Flatten)           (None, 6400)              0         
                                                                 
 dense1 (Dense)              (None, 512)               3277312   
                                                                 
 dense2 (Dense)              (None, 2)                 1026      
                                                                 
=================================================================
Total params: 3284146 (12.53 MB)
Trainable params: 3284146 (12.53 MB)
Non-trainable params: 0 (0.00 Byte)
_________________________________________________________________
Model: "my_net2"
_________________________________________________________________
 Layer (type)                Output Shape              Param #   
=================================================================
 conv_2 (Conv2D)             (None, 80, 80, 32)        1184      
                                                                 
 relu_2 (Activation)         (None, 80, 80, 32)        0         
                                                                 
 padding_2 (MaxPooling2D)    (None, 40, 40, 32)        0         
                                                                 
 conv_1 (Conv2D)             (None, 40, 40, 16)        4624      
                                                                 
 relu_1 (Activation)         (None, 40, 40, 16)        0         
                                                                 
 padding_1 (MaxPooling2D)    (None, 20, 20, 16)        0         
                                                                 
 flatten (Flatten)           (None, 6400)              0         
                                                                 
 dense1 (Dense)              (None, 512)               3277312   
                                                                 
 dense2 (Dense)              (None, 2)                 1026      
                                                                 
=================================================================
Total params: 3284146 (12.53 MB)
Trainable params: 3284146 (12.53 MB)
Non-trainable params: 0 (0.00 Byte)
_________________________________________________________________
<<<<<<< HEAD
Model: "my_net2"
_________________________________________________________________
 Layer (type)                Output Shape              Param #   
=================================================================
 conv_2 (Conv2D)             (None, 80, 80, 32)        1184      
                                                                 
 relu_2 (Activation)         (None, 80, 80, 32)        0         
                                                                 
 padding_2 (MaxPooling2D)    (None, 40, 40, 32)        0         
                                                                 
 conv_1 (Conv2D)             (None, 40, 40, 16)        4624      
                                                                 
 relu_1 (Activation)         (None, 40, 40, 16)        0         
                                                                 
 padding_1 (MaxPooling2D)    (None, 20, 20, 16)        0         
                                                                 
 flatten (Flatten)           (None, 6400)              0         
                                                                 
 dense1 (Dense)              (None, 512)               3277312   
                                                                 
 dense2 (Dense)              (None, 2)                 1026      
                                                                 
=================================================================
Total params: 3284146 (12.53 MB)
Trainable params: 3284146 (12.53 MB)
Non-trainable params: 0 (0.00 Byte)
_________________________________________________________________
Model: "my_net2"
_________________________________________________________________
 Layer (type)                Output Shape              Param #   
=================================================================
 conv_2 (Conv2D)             (None, 80, 80, 32)        1184      
                                                                 
 relu_2 (Activation)         (None, 80, 80, 32)        0         
                                                                 
 padding_2 (MaxPooling2D)    (None, 40, 40, 32)        0         
                                                                 
 conv_1 (Conv2D)             (None, 40, 40, 16)        4624      
                                                                 
 relu_1 (Activation)         (None, 40, 40, 16)        0         
                                                                 
 padding_1 (MaxPooling2D)    (None, 20, 20, 16)        0         
                                                                 
 flatten (Flatten)           (None, 6400)              0         
                                                                 
 dense1 (Dense)              (None, 512)               3277312   
                                                                 
 dense2 (Dense)              (None, 2)                 1026      
                                                                 
=================================================================
Total params: 3284146 (12.53 MB)
Trainable params: 3284146 (12.53 MB)
Non-trainable params: 0 (0.00 Byte)
_________________________________________________________________
Model: "my_net2"
_________________________________________________________________
 Layer (type)                Output Shape              Param #   
=================================================================
 conv_2 (Conv2D)             (None, 80, 80, 32)        1184      
                                                                 
 relu_2 (Activation)         (None, 80, 80, 32)        0         
                                                                 
 padding_2 (MaxPooling2D)    (None, 40, 40, 32)        0         
                                                                 
 conv_1 (Conv2D)             (None, 40, 40, 16)        4624      
                                                                 
 relu_1 (Activation)         (None, 40, 40, 16)        0         
                                                                 
 padding_1 (MaxPooling2D)    (None, 20, 20, 16)        0         
                                                                 
 flatten (Flatten)           (None, 6400)              0         
                                                                 
 dense1 (Dense)              (None, 512)               3277312   
                                                                 
 dense2 (Dense)              (None, 2)                 1026      
                                                                 
=================================================================
Total params: 3284146 (12.53 MB)
Trainable params: 3284146 (12.53 MB)
Non-trainable params: 0 (0.00 Byte)
_________________________________________________________________
Model: "my_net2"
_________________________________________________________________
 Layer (type)                Output Shape              Param #   
=================================================================
 conv_2 (Conv2D)             (None, 80, 80, 32)        1184      
                                                                 
 relu_2 (Activation)         (None, 80, 80, 32)        0         
                                                                 
 padding_2 (MaxPooling2D)    (None, 40, 40, 32)        0         
                                                                 
 conv_1 (Conv2D)             (None, 40, 40, 16)        4624      
                                                                 
 relu_1 (Activation)         (None, 40, 40, 16)        0         
                                                                 
 padding_1 (MaxPooling2D)    (None, 20, 20, 16)        0         
                                                                 
 flatten (Flatten)           (None, 6400)              0         
                                                                 
 dense1 (Dense)              (None, 512)               3277312   
                                                                 
 dense2 (Dense)              (None, 2)                 1026      
                                                                 
=================================================================
Total params: 3284146 (12.53 MB)
Trainable params: 1184 (4.62 KB)
Non-trainable params: 3282962 (12.52 MB)
_________________________________________________________________
Model: "my_net"
_________________________________________________________________
 Layer (type)                Output Shape              Param #   
=================================================================
 conv_1 (Conv2D)             (None, 40, 40, 16)        592       
                                                                 
 relu_1 (Activation)         (None, 40, 40, 16)        0         
                                                                 
 padding_1 (MaxPooling2D)    (None, 20, 20, 16)        0         
                                                                 
 flatten (Flatten)           (None, 6400)              0         
                                                                 
 dense1 (Dense)              (None, 512)               3277312   
                                                                 
 dense2 (Dense)              (None, 2)                 1026      
                                                                 
=================================================================
Total params: 3278930 (12.51 MB)
Trainable params: 3278930 (12.51 MB)
Non-trainable params: 0 (0.00 Byte)
_________________________________________________________________
Model: "my_net"
_________________________________________________________________
 Layer (type)                Output Shape              Param #   
=================================================================
 conv_1 (Conv2D)             (None, 40, 40, 16)        592       
                                                                 
 relu_1 (Activation)         (None, 40, 40, 16)        0         
                                                                 
 padding_1 (MaxPooling2D)    (None, 20, 20, 16)        0         
                                                                 
 flatten (Flatten)           (None, 6400)              0         
                                                                 
 dense1 (Dense)              (None, 512)               3277312   
                                                                 
 dense2 (Dense)              (None, 2)                 1026      
                                                                 
=================================================================
Total params: 3278930 (12.51 MB)
Trainable params: 3278930 (12.51 MB)
Non-trainable params: 0 (0.00 Byte)
_________________________________________________________________
Model: "my_net2"
_________________________________________________________________
 Layer (type)                Output Shape              Param #   
=================================================================
 conv_2 (Conv2D)             (None, 80, 80, 32)        1184      
                                                                 
 relu_2 (Activation)         (None, 80, 80, 32)        0         
                                                                 
 padding_2 (MaxPooling2D)    (None, 40, 40, 32)        0         
                                                                 
 conv_1 (Conv2D)             (None, 40, 40, 16)        4624      
                                                                 
 relu_1 (Activation)         (None, 40, 40, 16)        0         
                                                                 
 padding_1 (MaxPooling2D)    (None, 20, 20, 16)        0         
                                                                 
 flatten_1 (Flatten)         (None, 6400)              0         
                                                                 
 dense1 (Dense)              (None, 512)               3277312   
                                                                 
 dense2 (Dense)              (None, 2)                 1026      
                                                                 
=================================================================
Total params: 3284146 (12.53 MB)
Trainable params: 1184 (4.62 KB)
Non-trainable params: 3282962 (12.52 MB)
_________________________________________________________________
Model: "my_net2"
_________________________________________________________________
 Layer (type)                Output Shape              Param #   
=================================================================
 conv_2 (Conv2D)             (None, 80, 80, 32)        1184      
                                                                 
 relu_2 (Activation)         (None, 80, 80, 32)        0         
                                                                 
 padding_2 (MaxPooling2D)    (None, 40, 40, 32)        0         
                                                                 
 conv_1 (Conv2D)             (None, 40, 40, 16)        4624      
                                                                 
 relu_1 (Activation)         (None, 40, 40, 16)        0         
                                                                 
 padding_1 (MaxPooling2D)    (None, 20, 20, 16)        0         
                                                                 
 flatten (Flatten)           (None, 6400)              0         
                                                                 
 dense1 (Dense)              (None, 512)               3277312   
                                                                 
 dense2 (Dense)              (None, 2)                 1026      
                                                                 
=================================================================
Total params: 3284146 (12.53 MB)
Trainable params: 3284146 (12.53 MB)
Non-trainable params: 0 (0.00 Byte)
_________________________________________________________________
Model: "my_net2"
_________________________________________________________________
 Layer (type)                Output Shape              Param #   
=================================================================
 conv_2 (Conv2D)             (None, 80, 80, 32)        1184      
                                                                 
 relu_2 (Activation)         (None, 80, 80, 32)        0         
                                                                 
 padding_2 (MaxPooling2D)    (None, 40, 40, 32)        0         
                                                                 
 conv_1 (Conv2D)             (None, 40, 40, 16)        4624      
                                                                 
 relu_1 (Activation)         (None, 40, 40, 16)        0         
                                                                 
 padding_1 (MaxPooling2D)    (None, 20, 20, 16)        0         
                                                                 
 flatten (Flatten)           (None, 6400)              0         
                                                                 
 dense1 (Dense)              (None, 512)               3277312   
                                                                 
 dense2 (Dense)              (None, 2)                 1026      
                                                                 
=================================================================
Total params: 3284146 (12.53 MB)
Trainable params: 3284146 (12.53 MB)
Non-trainable params: 0 (0.00 Byte)
_________________________________________________________________
Model: "my_net2"
_________________________________________________________________
 Layer (type)                Output Shape              Param #   
=================================================================
 conv_2 (Conv2D)             (None, 80, 80, 32)        1184      
                                                                 
 relu_2 (Activation)         (None, 80, 80, 32)        0         
                                                                 
 padding_2 (MaxPooling2D)    (None, 40, 40, 32)        0         
                                                                 
 conv_1 (Conv2D)             (None, 40, 40, 16)        4624      
                                                                 
 relu_1 (Activation)         (None, 40, 40, 16)        0         
                                                                 
 padding_1 (MaxPooling2D)    (None, 20, 20, 16)        0         
                                                                 
 flatten (Flatten)           (None, 6400)              0         
                                                                 
 dense1 (Dense)              (None, 512)               3277312   
                                                                 
 dense2 (Dense)              (None, 2)                 1026      
                                                                 
=================================================================
Total params: 3284146 (12.53 MB)
Trainable params: 3284146 (12.53 MB)
Non-trainable params: 0 (0.00 Byte)
_________________________________________________________________
Model: "my_net2"
_________________________________________________________________
 Layer (type)                Output Shape              Param #   
=================================================================
 conv_2 (Conv2D)             (None, 80, 80, 32)        1184      
                                                                 
 relu_2 (Activation)         (None, 80, 80, 32)        0         
                                                                 
 padding_2 (MaxPooling2D)    (None, 40, 40, 32)        0         
                                                                 
 conv_1 (Conv2D)             (None, 40, 40, 16)        4624      
                                                                 
 relu_1 (Activation)         (None, 40, 40, 16)        0         
                                                                 
 padding_1 (MaxPooling2D)    (None, 20, 20, 16)        0         
                                                                 
 flatten (Flatten)           (None, 6400)              0         
                                                                 
 dense1 (Dense)              (None, 512)               3277312   
                                                                 
 dense2 (Dense)              (None, 2)                 1026      
                                                                 
=================================================================
Total params: 3284146 (12.53 MB)
Trainable params: 1184 (4.62 KB)
Non-trainable params: 3282962 (12.52 MB)
_________________________________________________________________
Model: "my_net"
_________________________________________________________________
 Layer (type)                Output Shape              Param #   
=================================================================
 conv_1 (Conv2D)             (None, 80, 80, 16)        592       
                                                                 
 relu_1 (Activation)         (None, 80, 80, 16)        0         
                                                                 
 padding_1 (MaxPooling2D)    (None, 40, 40, 16)        0         
                                                                 
 flatten (Flatten)           (None, 25600)             0         
                                                                 
 dense1 (Dense)              (None, 512)               13107712  
                                                                 
 dense2 (Dense)              (None, 2)                 1026      
                                                                 
=================================================================
Total params: 13109330 (50.01 MB)
Trainable params: 13109330 (50.01 MB)
Non-trainable params: 0 (0.00 Byte)
_________________________________________________________________
Model: "my_net"
_________________________________________________________________
 Layer (type)                Output Shape              Param #   
=================================================================
 conv_1 (Conv2D)             (None, 80, 80, 16)        592       
                                                                 
 relu_1 (Activation)         (None, 80, 80, 16)        0         
                                                                 
 padding_1 (MaxPooling2D)    (None, 40, 40, 16)        0         
                                                                 
 flatten (Flatten)           (None, 25600)             0         
                                                                 
 dense1 (Dense)              (None, 512)               13107712  
                                                                 
 dense2 (Dense)              (None, 2)                 1026      
                                                                 
=================================================================
Total params: 13109330 (50.01 MB)
Trainable params: 13109330 (50.01 MB)
Non-trainable params: 0 (0.00 Byte)
_________________________________________________________________
Model: "my_net"
_________________________________________________________________
 Layer (type)                Output Shape              Param #   
=================================================================
 conv_1 (Conv2D)             (None, 80, 80, 16)        592       
                                                                 
 relu_1 (Activation)         (None, 80, 80, 16)        0         
                                                                 
 padding_1 (MaxPooling2D)    (None, 40, 40, 16)        0         
                                                                 
 flatten (Flatten)           (None, 25600)             0         
                                                                 
 dense1 (Dense)              (None, 512)               13107712  
                                                                 
 dense2 (Dense)              (None, 2)                 1026      
                                                                 
=================================================================
Total params: 13109330 (50.01 MB)
Trainable params: 13109330 (50.01 MB)
Non-trainable params: 0 (0.00 Byte)
_________________________________________________________________
Model: "my_net"
_________________________________________________________________
 Layer (type)                Output Shape              Param #   
=================================================================
 conv_1 (Conv2D)             (None, 80, 80, 16)        592       
                                                                 
 relu_1 (Activation)         (None, 80, 80, 16)        0         
                                                                 
 padding_1 (MaxPooling2D)    (None, 40, 40, 16)        0         
                                                                 
 flatten (Flatten)           (None, 25600)             0         
                                                                 
 dense1 (Dense)              (None, 512)               13107712  
                                                                 
 dense2 (Dense)              (None, 2)                 1026      
                                                                 
=================================================================
Total params: 13109330 (50.01 MB)
Trainable params: 13109330 (50.01 MB)
Non-trainable params: 0 (0.00 Byte)
_________________________________________________________________
Model: "my_net"
_________________________________________________________________
 Layer (type)                Output Shape              Param #   
=================================================================
 conv_1 (Conv2D)             (None, 80, 80, 16)        592       
                                                                 
 relu_1 (Activation)         (None, 80, 80, 16)        0         
                                                                 
 padding_1 (MaxPooling2D)    (None, 40, 40, 16)        0         
                                                                 
 flatten (Flatten)           (None, 25600)             0         
                                                                 
 dense1 (Dense)              (None, 512)               13107712  
                                                                 
 dense2 (Dense)              (None, 2)                 1026      
                                                                 
=================================================================
Total params: 13109330 (50.01 MB)
Trainable params: 13109330 (50.01 MB)
Non-trainable params: 0 (0.00 Byte)
_________________________________________________________________
Model: "my_net"
_________________________________________________________________
 Layer (type)                Output Shape              Param #   
=================================================================
 conv_1 (Conv2D)             (None, 80, 80, 16)        592       
                                                                 
 relu_1 (Activation)         (None, 80, 80, 16)        0         
                                                                 
 padding_1 (MaxPooling2D)    (None, 40, 40, 16)        0         
                                                                 
 flatten (Flatten)           (None, 25600)             0         
                                                                 
 dense1 (Dense)              (None, 512)               13107712  
                                                                 
 dense2 (Dense)              (None, 2)                 1026      
                                                                 
=================================================================
Total params: 13109330 (50.01 MB)
Trainable params: 13109330 (50.01 MB)
Non-trainable params: 0 (0.00 Byte)
_________________________________________________________________
Model: "my_net"
_________________________________________________________________
 Layer (type)                Output Shape              Param #   
=================================================================
 conv_1 (Conv2D)             (None, 80, 80, 16)        592       
                                                                 
 relu_1 (Activation)         (None, 80, 80, 16)        0         
                                                                 
 padding_1 (MaxPooling2D)    (None, 40, 40, 16)        0         
                                                                 
 flatten (Flatten)           (None, 25600)             0         
                                                                 
 dense1 (Dense)              (None, 512)               13107712  
                                                                 
 dense2 (Dense)              (None, 2)                 1026      
                                                                 
=================================================================
Total params: 13109330 (50.01 MB)
Trainable params: 13109330 (50.01 MB)
Non-trainable params: 0 (0.00 Byte)
_________________________________________________________________
Model: "my_net"
_________________________________________________________________
 Layer (type)                Output Shape              Param #   
=================================================================
 conv_1 (Conv2D)             (None, 80, 80, 16)        592       
                                                                 
 relu_1 (Activation)         (None, 80, 80, 16)        0         
                                                                 
 padding_1 (MaxPooling2D)    (None, 40, 40, 16)        0         
                                                                 
 flatten (Flatten)           (None, 25600)             0         
                                                                 
 dense1 (Dense)              (None, 512)               13107712  
                                                                 
 dense2 (Dense)              (None, 2)                 1026      
                                                                 
=================================================================
Total params: 13109330 (50.01 MB)
Trainable params: 13109330 (50.01 MB)
Non-trainable params: 0 (0.00 Byte)
_________________________________________________________________
Model: "my_net"
_________________________________________________________________
 Layer (type)                Output Shape              Param #   
=================================================================
 conv_1 (Conv2D)             (None, 80, 80, 16)        592       
                                                                 
 relu_1 (Activation)         (None, 80, 80, 16)        0         
                                                                 
 padding_1 (MaxPooling2D)    (None, 40, 40, 16)        0         
                                                                 
 flatten (Flatten)           (None, 25600)             0         
                                                                 
 dense1 (Dense)              (None, 512)               13107712  
                                                                 
 dense2 (Dense)              (None, 2)                 1026      
                                                                 
=================================================================
Total params: 13109330 (50.01 MB)
Trainable params: 13109330 (50.01 MB)
Non-trainable params: 0 (0.00 Byte)
_________________________________________________________________
=======
>>>>>>> parent of 4938e2f... Increase the acceleration
Model: "my_net2"
_________________________________________________________________
 Layer (type)                Output Shape              Param #   
=================================================================
 conv_2 (Conv2D)             (None, 80, 80, 32)        1184      
                                                                 
 relu_2 (Activation)         (None, 80, 80, 32)        0         
                                                                 
 padding_2 (MaxPooling2D)    (None, 40, 40, 32)        0         
                                                                 
 conv_1 (Conv2D)             (None, 40, 40, 16)        4624      
                                                                 
 relu_1 (Activation)         (None, 40, 40, 16)        0         
                                                                 
 padding_1 (MaxPooling2D)    (None, 20, 20, 16)        0         
                                                                 
 flatten (Flatten)           (None, 6400)              0         
                                                                 
 dense1 (Dense)              (None, 512)               3277312   
                                                                 
 dense2 (Dense)              (None, 2)                 1026      
                                                                 
=================================================================
Total params: 3284146 (12.53 MB)
Trainable params: 1184 (4.62 KB)
Non-trainable params: 3282962 (12.52 MB)
_________________________________________________________________
Model: "my_net"
_________________________________________________________________
 Layer (type)                Output Shape              Param #   
=================================================================
 conv_1 (Conv2D)             (None, 40, 40, 16)        592       
                                                                 
 relu_1 (Activation)         (None, 40, 40, 16)        0         
                                                                 
 padding_1 (MaxPooling2D)    (None, 20, 20, 16)        0         
                                                                 
 flatten (Flatten)           (None, 6400)              0         
                                                                 
 dense1 (Dense)              (None, 512)               3277312   
                                                                 
 dense2 (Dense)              (None, 2)                 1026      
                                                                 
=================================================================
Total params: 3278930 (12.51 MB)
Trainable params: 3278930 (12.51 MB)
Non-trainable params: 0 (0.00 Byte)
_________________________________________________________________
Model: "my_net2"
_________________________________________________________________
 Layer (type)                Output Shape              Param #   
=================================================================
 conv_2 (Conv2D)             (None, 80, 80, 32)        1184      
                                                                 
 relu_2 (Activation)         (None, 80, 80, 32)        0         
                                                                 
 padding_2 (MaxPooling2D)    (None, 40, 40, 32)        0         
                                                                 
 conv_1 (Conv2D)             (None, 40, 40, 16)        4624      
                                                                 
 relu_1 (Activation)         (None, 40, 40, 16)        0         
                                                                 
 padding_1 (MaxPooling2D)    (None, 20, 20, 16)        0         
                                                                 
 flatten (Flatten)           (None, 6400)              0         
                                                                 
 dense1 (Dense)              (None, 512)               3277312   
                                                                 
 dense2 (Dense)              (None, 2)                 1026      
                                                                 
=================================================================
Total params: 3284146 (12.53 MB)
Trainable params: 3284146 (12.53 MB)
Non-trainable params: 0 (0.00 Byte)
_________________________________________________________________
Model: "my_net2"
_________________________________________________________________
 Layer (type)                Output Shape              Param #   
=================================================================
 conv_2 (Conv2D)             (None, 80, 80, 32)        1184      
                                                                 
 relu_2 (Activation)         (None, 80, 80, 32)        0         
                                                                 
 padding_2 (MaxPooling2D)    (None, 40, 40, 32)        0         
                                                                 
 conv_1 (Conv2D)             (None, 40, 40, 16)        4624      
                                                                 
 relu_1 (Activation)         (None, 40, 40, 16)        0         
                                                                 
 padding_1 (MaxPooling2D)    (None, 20, 20, 16)        0         
                                                                 
 flatten (Flatten)           (None, 6400)              0         
                                                                 
 dense1 (Dense)              (None, 512)               3277312   
                                                                 
 dense2 (Dense)              (None, 2)                 1026      
                                                                 
=================================================================
Total params: 3284146 (12.53 MB)
Trainable params: 3284146 (12.53 MB)
Non-trainable params: 0 (0.00 Byte)
_________________________________________________________________
Model: "my_net2"
_________________________________________________________________
 Layer (type)                Output Shape              Param #   
=================================================================
 conv_2 (Conv2D)             (None, 80, 80, 32)        1184      
                                                                 
 relu_2 (Activation)         (None, 80, 80, 32)        0         
                                                                 
 padding_2 (MaxPooling2D)    (None, 40, 40, 32)        0         
                                                                 
 conv_1 (Conv2D)             (None, 40, 40, 16)        4624      
                                                                 
 relu_1 (Activation)         (None, 40, 40, 16)        0         
                                                                 
 padding_1 (MaxPooling2D)    (None, 20, 20, 16)        0         
                                                                 
 flatten (Flatten)           (None, 6400)              0         
                                                                 
 dense1 (Dense)              (None, 512)               3277312   
                                                                 
 dense2 (Dense)              (None, 2)                 1026      
                                                                 
=================================================================
Total params: 3284146 (12.53 MB)
Trainable params: 3284146 (12.53 MB)
Non-trainable params: 0 (0.00 Byte)
_________________________________________________________________
Model: "my_net2"
_________________________________________________________________
 Layer (type)                Output Shape              Param #   
=================================================================
 conv_2 (Conv2D)             (None, 80, 80, 32)        1184      
                                                                 
 relu_2 (Activation)         (None, 80, 80, 32)        0         
                                                                 
 padding_2 (MaxPooling2D)    (None, 40, 40, 32)        0         
                                                                 
 conv_1 (Conv2D)             (None, 40, 40, 16)        4624      
                                                                 
 relu_1 (Activation)         (None, 40, 40, 16)        0         
                                                                 
 padding_1 (MaxPooling2D)    (None, 20, 20, 16)        0         
                                                                 
 flatten (Flatten)           (None, 6400)              0         
                                                                 
 dense1 (Dense)              (None, 512)               3277312   
                                                                 
 dense2 (Dense)              (None, 2)                 1026      
                                                                 
=================================================================
Total params: 3284146 (12.53 MB)
Trainable params: 3284146 (12.53 MB)
Non-trainable params: 0 (0.00 Byte)
_________________________________________________________________
Model: "my_net2"
_________________________________________________________________
 Layer (type)                Output Shape              Param #   
=================================================================
 conv_2 (Conv2D)             (None, 80, 80, 32)        1184      
                                                                 
 relu_2 (Activation)         (None, 80, 80, 32)        0         
                                                                 
 padding_2 (MaxPooling2D)    (None, 40, 40, 32)        0         
                                                                 
 conv_1 (Conv2D)             (None, 40, 40, 16)        4624      
                                                                 
 relu_1 (Activation)         (None, 40, 40, 16)        0         
                                                                 
 padding_1 (MaxPooling2D)    (None, 20, 20, 16)        0         
                                                                 
 flatten (Flatten)           (None, 6400)              0         
                                                                 
 dense1 (Dense)              (None, 512)               3277312   
                                                                 
 dense2 (Dense)              (None, 2)                 1026      
                                                                 
=================================================================
Total params: 3284146 (12.53 MB)
Trainable params: 3284146 (12.53 MB)
Non-trainable params: 0 (0.00 Byte)
_________________________________________________________________
Model: "my_net"
_________________________________________________________________
 Layer (type)                Output Shape              Param #   
=================================================================
 conv_1 (Conv2D)             (None, 30, 30, 16)        592       
                                                                 
 relu_1 (Activation)         (None, 30, 30, 16)        0         
                                                                 
 padding_1 (MaxPooling2D)    (None, 15, 15, 16)        0         
                                                                 
 flatten (Flatten)           (None, 3600)              0         
                                                                 
 dense1 (Dense)              (None, 512)               1843712   
                                                                 
 dense2 (Dense)              (None, 2)                 1026      
                                                                 
=================================================================
Total params: 1845330 (7.04 MB)
Trainable params: 1845330 (7.04 MB)
Non-trainable params: 0 (0.00 Byte)
_________________________________________________________________
Model: "my_net"
_________________________________________________________________
 Layer (type)                Output Shape              Param #   
=================================================================
 conv_1 (Conv2D)             (None, 30, 30, 16)        592       
                                                                 
 relu_1 (Activation)         (None, 30, 30, 16)        0         
                                                                 
 padding_1 (MaxPooling2D)    (None, 15, 15, 16)        0         
                                                                 
 flatten (Flatten)           (None, 3600)              0         
                                                                 
 dense1 (Dense)              (None, 512)               1843712   
                                                                 
 dense2 (Dense)              (None, 2)                 1026      
                                                                 
=================================================================
Total params: 1845330 (7.04 MB)
Trainable params: 1845330 (7.04 MB)
Non-trainable params: 0 (0.00 Byte)
_________________________________________________________________
Model: "my_net"
_________________________________________________________________
 Layer (type)                Output Shape              Param #   
=================================================================
 conv_1 (Conv2D)             (None, 30, 30, 16)        592       
                                                                 
 relu_1 (Activation)         (None, 30, 30, 16)        0         
                                                                 
 padding_1 (MaxPooling2D)    (None, 15, 15, 16)        0         
                                                                 
 flatten (Flatten)           (None, 3600)              0         
                                                                 
 dense1 (Dense)              (None, 512)               1843712   
                                                                 
 dense2 (Dense)              (None, 2)                 1026      
                                                                 
=================================================================
Total params: 1845330 (7.04 MB)
Trainable params: 1845330 (7.04 MB)
Non-trainable params: 0 (0.00 Byte)
_________________________________________________________________
Model: "my_net2"
_________________________________________________________________
 Layer (type)                Output Shape              Param #   
=================================================================
 conv_2 (Conv2D)             (None, 60, 60, 32)        1184      
                                                                 
 relu_2 (Activation)         (None, 60, 60, 32)        0         
                                                                 
 padding_2 (MaxPooling2D)    (None, 30, 30, 32)        0         
                                                                 
 conv_1 (Conv2D)             (None, 30, 30, 16)        4624      
                                                                 
 relu_1 (Activation)         (None, 30, 30, 16)        0         
                                                                 
 padding_1 (MaxPooling2D)    (None, 15, 15, 16)        0         
                                                                 
 flatten_1 (Flatten)         (None, 3600)              0         
                                                                 
 dense1 (Dense)              (None, 512)               1843712   
                                                                 
 dense2 (Dense)              (None, 2)                 1026      
                                                                 
=================================================================
Total params: 1850546 (7.06 MB)
Trainable params: 1184 (4.62 KB)
Non-trainable params: 1849362 (7.05 MB)
_________________________________________________________________
Model: "my_net2"
_________________________________________________________________
 Layer (type)                Output Shape              Param #   
=================================================================
 conv_2 (Conv2D)             (None, 60, 60, 32)        1184      
                                                                 
 relu_2 (Activation)         (None, 60, 60, 32)        0         
                                                                 
 padding_2 (MaxPooling2D)    (None, 30, 30, 32)        0         
                                                                 
 conv_1 (Conv2D)             (None, 30, 30, 16)        4624      
                                                                 
 relu_1 (Activation)         (None, 30, 30, 16)        0         
                                                                 
 padding_1 (MaxPooling2D)    (None, 15, 15, 16)        0         
                                                                 
 flatten (Flatten)           (None, 3600)              0         
                                                                 
 dense1 (Dense)              (None, 512)               1843712   
                                                                 
 dense2 (Dense)              (None, 2)                 1026      
                                                                 
=================================================================
Total params: 1850546 (7.06 MB)
Trainable params: 1850546 (7.06 MB)
Non-trainable params: 0 (0.00 Byte)
_________________________________________________________________
Model: "my_net2"
_________________________________________________________________
 Layer (type)                Output Shape              Param #   
=================================================================
 conv_2 (Conv2D)             (None, 60, 60, 32)        1184      
                                                                 
 relu_2 (Activation)         (None, 60, 60, 32)        0         
                                                                 
 padding_2 (MaxPooling2D)    (None, 30, 30, 32)        0         
                                                                 
 conv_1 (Conv2D)             (None, 30, 30, 16)        4624      
                                                                 
 relu_1 (Activation)         (None, 30, 30, 16)        0         
                                                                 
 padding_1 (MaxPooling2D)    (None, 15, 15, 16)        0         
                                                                 
 flatten (Flatten)           (None, 3600)              0         
                                                                 
 dense1 (Dense)              (None, 512)               1843712   
                                                                 
 dense2 (Dense)              (None, 2)                 1026      
                                                                 
=================================================================
Total params: 1850546 (7.06 MB)
Trainable params: 1850546 (7.06 MB)
Non-trainable params: 0 (0.00 Byte)
_________________________________________________________________
Model: "my_net2_2"
_________________________________________________________________
 Layer (type)                Output Shape              Param #   
=================================================================
 conv_2 (Conv2D)             (None, 60, 60, 32)        1184      
                                                                 
 relu_2 (Activation)         (None, 60, 60, 32)        0         
                                                                 
 padding_2 (MaxPooling2D)    (None, 30, 30, 32)        0         
                                                                 
 conv_1 (Conv2D)             (None, 30, 30, 16)        4624      
                                                                 
 relu_1 (Activation)         (None, 30, 30, 16)        0         
                                                                 
 padding_1 (MaxPooling2D)    (None, 15, 15, 16)        0         
                                                                 
 flatten_2 (Flatten)         (None, 3600)              0         
                                                                 
 dense1 (Dense)              (None, 512)               1843712   
                                                                 
 dense2 (Dense)              (None, 2)                 1026      
                                                                 
=================================================================
Total params: 1850546 (7.06 MB)
Trainable params: 1850546 (7.06 MB)
Non-trainable params: 0 (0.00 Byte)
_________________________________________________________________
Model: "my_net2_4"
_________________________________________________________________
 Layer (type)                Output Shape              Param #   
=================================================================
 conv_2 (Conv2D)             (None, 60, 60, 32)        1184      
                                                                 
 relu_2 (Activation)         (None, 60, 60, 32)        0         
                                                                 
 padding_2 (MaxPooling2D)    (None, 30, 30, 32)        0         
                                                                 
 conv_1 (Conv2D)             (None, 30, 30, 16)        4624      
                                                                 
 relu_1 (Activation)         (None, 30, 30, 16)        0         
                                                                 
 padding_1 (MaxPooling2D)    (None, 15, 15, 16)        0         
                                                                 
 flatten_4 (Flatten)         (None, 3600)              0         
                                                                 
 dense1 (Dense)              (None, 512)               1843712   
                                                                 
 dense2 (Dense)              (None, 2)                 1026      
                                                                 
=================================================================
Total params: 1850546 (7.06 MB)
Trainable params: 1850546 (7.06 MB)
Non-trainable params: 0 (0.00 Byte)
_________________________________________________________________
Model: "my_net2_6"
_________________________________________________________________
 Layer (type)                Output Shape              Param #   
=================================================================
 conv_2 (Conv2D)             (None, 60, 60, 32)        1184      
                                                                 
 relu_2 (Activation)         (None, 60, 60, 32)        0         
                                                                 
 padding_2 (MaxPooling2D)    (None, 30, 30, 32)        0         
                                                                 
 conv_1 (Conv2D)             (None, 30, 30, 16)        4624      
                                                                 
 relu_1 (Activation)         (None, 30, 30, 16)        0         
                                                                 
 padding_1 (MaxPooling2D)    (None, 15, 15, 16)        0         
                                                                 
 flatten_6 (Flatten)         (None, 3600)              0         
                                                                 
 dense1 (Dense)              (None, 512)               1843712   
                                                                 
 dense2 (Dense)              (None, 2)                 1026      
                                                                 
=================================================================
Total params: 1850546 (7.06 MB)
Trainable params: 1850546 (7.06 MB)
Non-trainable params: 0 (0.00 Byte)
_________________________________________________________________
Model: "my_net2_8"
_________________________________________________________________
 Layer (type)                Output Shape              Param #   
=================================================================
 conv_2 (Conv2D)             (None, 60, 60, 32)        1184      
                                                                 
 relu_2 (Activation)         (None, 60, 60, 32)        0         
                                                                 
 padding_2 (MaxPooling2D)    (None, 30, 30, 32)        0         
                                                                 
 conv_1 (Conv2D)             (None, 30, 30, 16)        4624      
                                                                 
 relu_1 (Activation)         (None, 30, 30, 16)        0         
                                                                 
 padding_1 (MaxPooling2D)    (None, 15, 15, 16)        0         
                                                                 
 flatten_8 (Flatten)         (None, 3600)              0         
                                                                 
 dense1 (Dense)              (None, 512)               1843712   
                                                                 
 dense2 (Dense)              (None, 2)                 1026      
                                                                 
=================================================================
Total params: 1850546 (7.06 MB)
Trainable params: 1850546 (7.06 MB)
Non-trainable params: 0 (0.00 Byte)
_________________________________________________________________
Model: "my_net2_10"
_________________________________________________________________
 Layer (type)                Output Shape              Param #   
=================================================================
 conv_2 (Conv2D)             (None, 60, 60, 32)        1184      
                                                                 
 relu_2 (Activation)         (None, 60, 60, 32)        0         
                                                                 
 padding_2 (MaxPooling2D)    (None, 30, 30, 32)        0         
                                                                 
 conv_1 (Conv2D)             (None, 30, 30, 16)        4624      
                                                                 
 relu_1 (Activation)         (None, 30, 30, 16)        0         
                                                                 
 padding_1 (MaxPooling2D)    (None, 15, 15, 16)        0         
                                                                 
 flatten_10 (Flatten)        (None, 3600)              0         
                                                                 
 dense1 (Dense)              (None, 512)               1843712   
                                                                 
 dense2 (Dense)              (None, 2)                 1026      
                                                                 
=================================================================
Total params: 1850546 (7.06 MB)
Trainable params: 1850546 (7.06 MB)
Non-trainable params: 0 (0.00 Byte)
_________________________________________________________________
Model: "my_net2_12"
_________________________________________________________________
 Layer (type)                Output Shape              Param #   
=================================================================
 conv_2 (Conv2D)             (None, 60, 60, 32)        1184      
                                                                 
 relu_2 (Activation)         (None, 60, 60, 32)        0         
                                                                 
 padding_2 (MaxPooling2D)    (None, 30, 30, 32)        0         
                                                                 
 conv_1 (Conv2D)             (None, 30, 30, 16)        4624      
                                                                 
 relu_1 (Activation)         (None, 30, 30, 16)        0         
                                                                 
 padding_1 (MaxPooling2D)    (None, 15, 15, 16)        0         
                                                                 
 flatten_12 (Flatten)        (None, 3600)              0         
                                                                 
 dense1 (Dense)              (None, 512)               1843712   
                                                                 
 dense2 (Dense)              (None, 2)                 1026      
                                                                 
=================================================================
Total params: 1850546 (7.06 MB)
Trainable params: 1850546 (7.06 MB)
Non-trainable params: 0 (0.00 Byte)
_________________________________________________________________
Model: "my_net2_14"
_________________________________________________________________
 Layer (type)                Output Shape              Param #   
=================================================================
 conv_2 (Conv2D)             (None, 60, 60, 32)        1184      
                                                                 
 relu_2 (Activation)         (None, 60, 60, 32)        0         
                                                                 
 padding_2 (MaxPooling2D)    (None, 30, 30, 32)        0         
                                                                 
 conv_1 (Conv2D)             (None, 30, 30, 16)        4624      
                                                                 
 relu_1 (Activation)         (None, 30, 30, 16)        0         
                                                                 
 padding_1 (MaxPooling2D)    (None, 15, 15, 16)        0         
                                                                 
 flatten_14 (Flatten)        (None, 3600)              0         
                                                                 
 dense1 (Dense)              (None, 512)               1843712   
                                                                 
 dense2 (Dense)              (None, 2)                 1026      
                                                                 
=================================================================
Total params: 1850546 (7.06 MB)
Trainable params: 1850546 (7.06 MB)
Non-trainable params: 0 (0.00 Byte)
_________________________________________________________________
Model: "my_net2_16"
_________________________________________________________________
 Layer (type)                Output Shape              Param #   
=================================================================
 conv_2 (Conv2D)             (None, 60, 60, 32)        1184      
                                                                 
 relu_2 (Activation)         (None, 60, 60, 32)        0         
                                                                 
 padding_2 (MaxPooling2D)    (None, 30, 30, 32)        0         
                                                                 
 conv_1 (Conv2D)             (None, 30, 30, 16)        4624      
                                                                 
 relu_1 (Activation)         (None, 30, 30, 16)        0         
                                                                 
 padding_1 (MaxPooling2D)    (None, 15, 15, 16)        0         
                                                                 
 flatten_16 (Flatten)        (None, 3600)              0         
                                                                 
 dense1 (Dense)              (None, 512)               1843712   
                                                                 
 dense2 (Dense)              (None, 2)                 1026      
                                                                 
=================================================================
Total params: 1850546 (7.06 MB)
Trainable params: 1850546 (7.06 MB)
Non-trainable params: 0 (0.00 Byte)
_________________________________________________________________
Model: "my_net2_18"
_________________________________________________________________
 Layer (type)                Output Shape              Param #   
=================================================================
 conv_2 (Conv2D)             (None, 60, 60, 32)        1184      
                                                                 
 relu_2 (Activation)         (None, 60, 60, 32)        0         
                                                                 
 padding_2 (MaxPooling2D)    (None, 30, 30, 32)        0         
                                                                 
 conv_1 (Conv2D)             (None, 30, 30, 16)        4624      
                                                                 
 relu_1 (Activation)         (None, 30, 30, 16)        0         
                                                                 
 padding_1 (MaxPooling2D)    (None, 15, 15, 16)        0         
                                                                 
 flatten_18 (Flatten)        (None, 3600)              0         
                                                                 
 dense1 (Dense)              (None, 512)               1843712   
                                                                 
 dense2 (Dense)              (None, 2)                 1026      
                                                                 
=================================================================
Total params: 1850546 (7.06 MB)
Trainable params: 1850546 (7.06 MB)
Non-trainable params: 0 (0.00 Byte)
_________________________________________________________________
Model: "my_net2_20"
_________________________________________________________________
 Layer (type)                Output Shape              Param #   
=================================================================
 conv_2 (Conv2D)             (None, 60, 60, 32)        1184      
                                                                 
 relu_2 (Activation)         (None, 60, 60, 32)        0         
                                                                 
 padding_2 (MaxPooling2D)    (None, 30, 30, 32)        0         
                                                                 
 conv_1 (Conv2D)             (None, 30, 30, 16)        4624      
                                                                 
 relu_1 (Activation)         (None, 30, 30, 16)        0         
                                                                 
 padding_1 (MaxPooling2D)    (None, 15, 15, 16)        0         
                                                                 
 flatten_20 (Flatten)        (None, 3600)              0         
                                                                 
 dense1 (Dense)              (None, 512)               1843712   
                                                                 
 dense2 (Dense)              (None, 2)                 1026      
                                                                 
=================================================================
Total params: 1850546 (7.06 MB)
Trainable params: 1850546 (7.06 MB)
Non-trainable params: 0 (0.00 Byte)
_________________________________________________________________
Model: "my_net2_22"
_________________________________________________________________
 Layer (type)                Output Shape              Param #   
=================================================================
 conv_2 (Conv2D)             (None, 60, 60, 32)        1184      
                                                                 
 relu_2 (Activation)         (None, 60, 60, 32)        0         
                                                                 
 padding_2 (MaxPooling2D)    (None, 30, 30, 32)        0         
                                                                 
 conv_1 (Conv2D)             (None, 30, 30, 16)        4624      
                                                                 
 relu_1 (Activation)         (None, 30, 30, 16)        0         
                                                                 
 padding_1 (MaxPooling2D)    (None, 15, 15, 16)        0         
                                                                 
 flatten_22 (Flatten)        (None, 3600)              0         
                                                                 
 dense1 (Dense)              (None, 512)               1843712   
                                                                 
 dense2 (Dense)              (None, 2)                 1026      
                                                                 
=================================================================
Total params: 1850546 (7.06 MB)
Trainable params: 1850546 (7.06 MB)
Non-trainable params: 0 (0.00 Byte)
_________________________________________________________________
Model: "my_net2_24"
_________________________________________________________________
 Layer (type)                Output Shape              Param #   
=================================================================
 conv_2 (Conv2D)             (None, 60, 60, 32)        1184      
                                                                 
 relu_2 (Activation)         (None, 60, 60, 32)        0         
                                                                 
 padding_2 (MaxPooling2D)    (None, 30, 30, 32)        0         
                                                                 
 conv_1 (Conv2D)             (None, 30, 30, 16)        4624      
                                                                 
 relu_1 (Activation)         (None, 30, 30, 16)        0         
                                                                 
 padding_1 (MaxPooling2D)    (None, 15, 15, 16)        0         
                                                                 
 flatten_24 (Flatten)        (None, 3600)              0         
                                                                 
 dense1 (Dense)              (None, 512)               1843712   
                                                                 
 dense2 (Dense)              (None, 2)                 1026      
                                                                 
=================================================================
Total params: 1850546 (7.06 MB)
Trainable params: 1850546 (7.06 MB)
Non-trainable params: 0 (0.00 Byte)
_________________________________________________________________
Model: "my_net2_26"
_________________________________________________________________
 Layer (type)                Output Shape              Param #   
=================================================================
 conv_2 (Conv2D)             (None, 60, 60, 32)        1184      
                                                                 
 relu_2 (Activation)         (None, 60, 60, 32)        0         
                                                                 
 padding_2 (MaxPooling2D)    (None, 30, 30, 32)        0         
                                                                 
 conv_1 (Conv2D)             (None, 30, 30, 16)        4624      
                                                                 
 relu_1 (Activation)         (None, 30, 30, 16)        0         
                                                                 
 padding_1 (MaxPooling2D)    (None, 15, 15, 16)        0         
                                                                 
 flatten_26 (Flatten)        (None, 3600)              0         
                                                                 
 dense1 (Dense)              (None, 512)               1843712   
                                                                 
 dense2 (Dense)              (None, 2)                 1026      
                                                                 
=================================================================
Total params: 1850546 (7.06 MB)
Trainable params: 1850546 (7.06 MB)
Non-trainable params: 0 (0.00 Byte)
_________________________________________________________________
Model: "my_net2_28"
_________________________________________________________________
 Layer (type)                Output Shape              Param #   
=================================================================
 conv_2 (Conv2D)             (None, 60, 60, 32)        1184      
                                                                 
 relu_2 (Activation)         (None, 60, 60, 32)        0         
                                                                 
 padding_2 (MaxPooling2D)    (None, 30, 30, 32)        0         
                                                                 
 conv_1 (Conv2D)             (None, 30, 30, 16)        4624      
                                                                 
 relu_1 (Activation)         (None, 30, 30, 16)        0         
                                                                 
 padding_1 (MaxPooling2D)    (None, 15, 15, 16)        0         
                                                                 
 flatten_28 (Flatten)        (None, 3600)              0         
                                                                 
 dense1 (Dense)              (None, 512)               1843712   
                                                                 
 dense2 (Dense)              (None, 2)                 1026      
                                                                 
=================================================================
Total params: 1850546 (7.06 MB)
Trainable params: 1850546 (7.06 MB)
Non-trainable params: 0 (0.00 Byte)
_________________________________________________________________
Model: "my_net2_30"
_________________________________________________________________
 Layer (type)                Output Shape              Param #   
=================================================================
 conv_2 (Conv2D)             (None, 60, 60, 32)        1184      
                                                                 
 relu_2 (Activation)         (None, 60, 60, 32)        0         
                                                                 
 padding_2 (MaxPooling2D)    (None, 30, 30, 32)        0         
                                                                 
 conv_1 (Conv2D)             (None, 30, 30, 16)        4624      
                                                                 
 relu_1 (Activation)         (None, 30, 30, 16)        0         
                                                                 
 padding_1 (MaxPooling2D)    (None, 15, 15, 16)        0         
                                                                 
 flatten_30 (Flatten)        (None, 3600)              0         
                                                                 
 dense1 (Dense)              (None, 512)               1843712   
                                                                 
 dense2 (Dense)              (None, 2)                 1026      
                                                                 
=================================================================
Total params: 1850546 (7.06 MB)
Trainable params: 1850546 (7.06 MB)
Non-trainable params: 0 (0.00 Byte)
_________________________________________________________________
Model: "my_net2_32"
_________________________________________________________________
 Layer (type)                Output Shape              Param #   
=================================================================
 conv_2 (Conv2D)             (None, 60, 60, 32)        1184      
                                                                 
 relu_2 (Activation)         (None, 60, 60, 32)        0         
                                                                 
 padding_2 (MaxPooling2D)    (None, 30, 30, 32)        0         
                                                                 
 conv_1 (Conv2D)             (None, 30, 30, 16)        4624      
                                                                 
 relu_1 (Activation)         (None, 30, 30, 16)        0         
                                                                 
 padding_1 (MaxPooling2D)    (None, 15, 15, 16)        0         
                                                                 
 flatten_32 (Flatten)        (None, 3600)              0         
                                                                 
 dense1 (Dense)              (None, 512)               1843712   
                                                                 
 dense2 (Dense)              (None, 2)                 1026      
                                                                 
=================================================================
Total params: 1850546 (7.06 MB)
Trainable params: 1850546 (7.06 MB)
Non-trainable params: 0 (0.00 Byte)
_________________________________________________________________
Model: "my_net2_34"
_________________________________________________________________
 Layer (type)                Output Shape              Param #   
=================================================================
 conv_2 (Conv2D)             (None, 60, 60, 32)        1184      
                                                                 
 relu_2 (Activation)         (None, 60, 60, 32)        0         
                                                                 
 padding_2 (MaxPooling2D)    (None, 30, 30, 32)        0         
                                                                 
 conv_1 (Conv2D)             (None, 30, 30, 16)        4624      
                                                                 
 relu_1 (Activation)         (None, 30, 30, 16)        0         
                                                                 
 padding_1 (MaxPooling2D)    (None, 15, 15, 16)        0         
                                                                 
 flatten_34 (Flatten)        (None, 3600)              0         
                                                                 
 dense1 (Dense)              (None, 512)               1843712   
                                                                 
 dense2 (Dense)              (None, 2)                 1026      
                                                                 
=================================================================
Total params: 1850546 (7.06 MB)
Trainable params: 1850546 (7.06 MB)
Non-trainable params: 0 (0.00 Byte)
_________________________________________________________________
Model: "my_net2_36"
_________________________________________________________________
 Layer (type)                Output Shape              Param #   
=================================================================
 conv_2 (Conv2D)             (None, 60, 60, 32)        1184      
                                                                 
 relu_2 (Activation)         (None, 60, 60, 32)        0         
                                                                 
 padding_2 (MaxPooling2D)    (None, 30, 30, 32)        0         
                                                                 
 conv_1 (Conv2D)             (None, 30, 30, 16)        4624      
                                                                 
 relu_1 (Activation)         (None, 30, 30, 16)        0         
                                                                 
 padding_1 (MaxPooling2D)    (None, 15, 15, 16)        0         
                                                                 
 flatten_36 (Flatten)        (None, 3600)              0         
                                                                 
 dense1 (Dense)              (None, 512)               1843712   
                                                                 
 dense2 (Dense)              (None, 2)                 1026      
                                                                 
=================================================================
Total params: 1850546 (7.06 MB)
Trainable params: 1850546 (7.06 MB)
Non-trainable params: 0 (0.00 Byte)
_________________________________________________________________
Model: "my_net2_38"
_________________________________________________________________
 Layer (type)                Output Shape              Param #   
=================================================================
 conv_2 (Conv2D)             (None, 60, 60, 32)        1184      
                                                                 
 relu_2 (Activation)         (None, 60, 60, 32)        0         
                                                                 
 padding_2 (MaxPooling2D)    (None, 30, 30, 32)        0         
                                                                 
 conv_1 (Conv2D)             (None, 30, 30, 16)        4624      
                                                                 
 relu_1 (Activation)         (None, 30, 30, 16)        0         
                                                                 
 padding_1 (MaxPooling2D)    (None, 15, 15, 16)        0         
                                                                 
 flatten_38 (Flatten)        (None, 3600)              0         
                                                                 
 dense1 (Dense)              (None, 512)               1843712   
                                                                 
 dense2 (Dense)              (None, 2)                 1026      
                                                                 
=================================================================
Total params: 1850546 (7.06 MB)
Trainable params: 1850546 (7.06 MB)
Non-trainable params: 0 (0.00 Byte)
_________________________________________________________________
Model: "my_net2_40"
_________________________________________________________________
 Layer (type)                Output Shape              Param #   
=================================================================
 conv_2 (Conv2D)             (None, 60, 60, 32)        1184      
                                                                 
 relu_2 (Activation)         (None, 60, 60, 32)        0         
                                                                 
 padding_2 (MaxPooling2D)    (None, 30, 30, 32)        0         
                                                                 
 conv_1 (Conv2D)             (None, 30, 30, 16)        4624      
                                                                 
 relu_1 (Activation)         (None, 30, 30, 16)        0         
                                                                 
 padding_1 (MaxPooling2D)    (None, 15, 15, 16)        0         
                                                                 
 flatten_40 (Flatten)        (None, 3600)              0         
                                                                 
 dense1 (Dense)              (None, 512)               1843712   
                                                                 
 dense2 (Dense)              (None, 2)                 1026      
                                                                 
=================================================================
Total params: 1850546 (7.06 MB)
Trainable params: 1850546 (7.06 MB)
Non-trainable params: 0 (0.00 Byte)
_________________________________________________________________
Model: "my_net2_42"
_________________________________________________________________
 Layer (type)                Output Shape              Param #   
=================================================================
 conv_2 (Conv2D)             (None, 60, 60, 32)        1184      
                                                                 
 relu_2 (Activation)         (None, 60, 60, 32)        0         
                                                                 
 padding_2 (MaxPooling2D)    (None, 30, 30, 32)        0         
                                                                 
 conv_1 (Conv2D)             (None, 30, 30, 16)        4624      
                                                                 
 relu_1 (Activation)         (None, 30, 30, 16)        0         
                                                                 
 padding_1 (MaxPooling2D)    (None, 15, 15, 16)        0         
                                                                 
 flatten_42 (Flatten)        (None, 3600)              0         
                                                                 
 dense1 (Dense)              (None, 512)               1843712   
                                                                 
 dense2 (Dense)              (None, 2)                 1026      
                                                                 
=================================================================
Total params: 1850546 (7.06 MB)
Trainable params: 1850546 (7.06 MB)
Non-trainable params: 0 (0.00 Byte)
_________________________________________________________________
Model: "my_net2_44"
_________________________________________________________________
 Layer (type)                Output Shape              Param #   
=================================================================
 conv_2 (Conv2D)             (None, 60, 60, 32)        1184      
                                                                 
 relu_2 (Activation)         (None, 60, 60, 32)        0         
                                                                 
 padding_2 (MaxPooling2D)    (None, 30, 30, 32)        0         
                                                                 
 conv_1 (Conv2D)             (None, 30, 30, 16)        4624      
                                                                 
 relu_1 (Activation)         (None, 30, 30, 16)        0         
                                                                 
 padding_1 (MaxPooling2D)    (None, 15, 15, 16)        0         
                                                                 
 flatten_44 (Flatten)        (None, 3600)              0         
                                                                 
 dense1 (Dense)              (None, 512)               1843712   
                                                                 
 dense2 (Dense)              (None, 2)                 1026      
                                                                 
=================================================================
Total params: 1850546 (7.06 MB)
Trainable params: 1850546 (7.06 MB)
Non-trainable params: 0 (0.00 Byte)
_________________________________________________________________
Model: "my_net2_46"
_________________________________________________________________
 Layer (type)                Output Shape              Param #   
=================================================================
 conv_2 (Conv2D)             (None, 60, 60, 32)        1184      
                                                                 
 relu_2 (Activation)         (None, 60, 60, 32)        0         
                                                                 
 padding_2 (MaxPooling2D)    (None, 30, 30, 32)        0         
                                                                 
 conv_1 (Conv2D)             (None, 30, 30, 16)        4624      
                                                                 
 relu_1 (Activation)         (None, 30, 30, 16)        0         
                                                                 
 padding_1 (MaxPooling2D)    (None, 15, 15, 16)        0         
                                                                 
 flatten_46 (Flatten)        (None, 3600)              0         
                                                                 
 dense1 (Dense)              (None, 512)               1843712   
                                                                 
 dense2 (Dense)              (None, 2)                 1026      
                                                                 
=================================================================
Total params: 1850546 (7.06 MB)
Trainable params: 1850546 (7.06 MB)
Non-trainable params: 0 (0.00 Byte)
_________________________________________________________________
Model: "my_net2_48"
_________________________________________________________________
 Layer (type)                Output Shape              Param #   
=================================================================
 conv_2 (Conv2D)             (None, 60, 60, 32)        1184      
                                                                 
 relu_2 (Activation)         (None, 60, 60, 32)        0         
                                                                 
 padding_2 (MaxPooling2D)    (None, 30, 30, 32)        0         
                                                                 
 conv_1 (Conv2D)             (None, 30, 30, 16)        4624      
                                                                 
 relu_1 (Activation)         (None, 30, 30, 16)        0         
                                                                 
 padding_1 (MaxPooling2D)    (None, 15, 15, 16)        0         
                                                                 
 flatten_48 (Flatten)        (None, 3600)              0         
                                                                 
 dense1 (Dense)              (None, 512)               1843712   
                                                                 
 dense2 (Dense)              (None, 2)                 1026      
                                                                 
=================================================================
Total params: 1850546 (7.06 MB)
Trainable params: 1850546 (7.06 MB)
Non-trainable params: 0 (0.00 Byte)
_________________________________________________________________
Model: "my_net2_50"
_________________________________________________________________
 Layer (type)                Output Shape              Param #   
=================================================================
 conv_2 (Conv2D)             (None, 60, 60, 32)        1184      
                                                                 
 relu_2 (Activation)         (None, 60, 60, 32)        0         
                                                                 
 padding_2 (MaxPooling2D)    (None, 30, 30, 32)        0         
                                                                 
 conv_1 (Conv2D)             (None, 30, 30, 16)        4624      
                                                                 
 relu_1 (Activation)         (None, 30, 30, 16)        0         
                                                                 
 padding_1 (MaxPooling2D)    (None, 15, 15, 16)        0         
                                                                 
 flatten_50 (Flatten)        (None, 3600)              0         
                                                                 
 dense1 (Dense)              (None, 512)               1843712   
                                                                 
 dense2 (Dense)              (None, 2)                 1026      
                                                                 
=================================================================
Total params: 1850546 (7.06 MB)
Trainable params: 1850546 (7.06 MB)
Non-trainable params: 0 (0.00 Byte)
_________________________________________________________________
Model: "my_net2_52"
_________________________________________________________________
 Layer (type)                Output Shape              Param #   
=================================================================
 conv_2 (Conv2D)             (None, 60, 60, 32)        1184      
                                                                 
 relu_2 (Activation)         (None, 60, 60, 32)        0         
                                                                 
 padding_2 (MaxPooling2D)    (None, 30, 30, 32)        0         
                                                                 
 conv_1 (Conv2D)             (None, 30, 30, 16)        4624      
                                                                 
 relu_1 (Activation)         (None, 30, 30, 16)        0         
                                                                 
 padding_1 (MaxPooling2D)    (None, 15, 15, 16)        0         
                                                                 
 flatten_52 (Flatten)        (None, 3600)              0         
                                                                 
 dense1 (Dense)              (None, 512)               1843712   
                                                                 
 dense2 (Dense)              (None, 2)                 1026      
                                                                 
=================================================================
Total params: 1850546 (7.06 MB)
Trainable params: 1850546 (7.06 MB)
Non-trainable params: 0 (0.00 Byte)
_________________________________________________________________
Model: "my_net2_54"
_________________________________________________________________
 Layer (type)                Output Shape              Param #   
=================================================================
 conv_2 (Conv2D)             (None, 60, 60, 32)        1184      
                                                                 
 relu_2 (Activation)         (None, 60, 60, 32)        0         
                                                                 
 padding_2 (MaxPooling2D)    (None, 30, 30, 32)        0         
                                                                 
 conv_1 (Conv2D)             (None, 30, 30, 16)        4624      
                                                                 
 relu_1 (Activation)         (None, 30, 30, 16)        0         
                                                                 
 padding_1 (MaxPooling2D)    (None, 15, 15, 16)        0         
                                                                 
 flatten_54 (Flatten)        (None, 3600)              0         
                                                                 
 dense1 (Dense)              (None, 512)               1843712   
                                                                 
 dense2 (Dense)              (None, 2)                 1026      
                                                                 
=================================================================
Total params: 1850546 (7.06 MB)
Trainable params: 1850546 (7.06 MB)
Non-trainable params: 0 (0.00 Byte)
_________________________________________________________________
Model: "my_net2_56"
_________________________________________________________________
 Layer (type)                Output Shape              Param #   
=================================================================
 conv_2 (Conv2D)             (None, 60, 60, 32)        1184      
                                                                 
 relu_2 (Activation)         (None, 60, 60, 32)        0         
                                                                 
 padding_2 (MaxPooling2D)    (None, 30, 30, 32)        0         
                                                                 
 conv_1 (Conv2D)             (None, 30, 30, 16)        4624      
                                                                 
 relu_1 (Activation)         (None, 30, 30, 16)        0         
                                                                 
 padding_1 (MaxPooling2D)    (None, 15, 15, 16)        0         
                                                                 
 flatten_56 (Flatten)        (None, 3600)              0         
                                                                 
 dense1 (Dense)              (None, 512)               1843712   
                                                                 
 dense2 (Dense)              (None, 2)                 1026      
                                                                 
=================================================================
Total params: 1850546 (7.06 MB)
Trainable params: 1850546 (7.06 MB)
Non-trainable params: 0 (0.00 Byte)
_________________________________________________________________
Model: "my_net2_58"
_________________________________________________________________
 Layer (type)                Output Shape              Param #   
=================================================================
 conv_2 (Conv2D)             (None, 60, 60, 32)        1184      
                                                                 
 relu_2 (Activation)         (None, 60, 60, 32)        0         
                                                                 
 padding_2 (MaxPooling2D)    (None, 30, 30, 32)        0         
                                                                 
 conv_1 (Conv2D)             (None, 30, 30, 16)        4624      
                                                                 
 relu_1 (Activation)         (None, 30, 30, 16)        0         
                                                                 
 padding_1 (MaxPooling2D)    (None, 15, 15, 16)        0         
                                                                 
 flatten_58 (Flatten)        (None, 3600)              0         
                                                                 
 dense1 (Dense)              (None, 512)               1843712   
                                                                 
 dense2 (Dense)              (None, 2)                 1026      
                                                                 
=================================================================
Total params: 1850546 (7.06 MB)
Trainable params: 1850546 (7.06 MB)
Non-trainable params: 0 (0.00 Byte)
_________________________________________________________________
