Model: "my_net"
_________________________________________________________________
 Layer (type)                Output Shape              Param #   
=================================================================
 conv_1 (Conv2D)             (None, 40, 40, 16)        592       
                                                                 
 relu_1 (Activation)         (None, 40, 40, 16)        0         
                                                                 
 padding_1 (MaxPooling2D)    (None, 20, 20, 16)        0         
                                                                 
 flatten (Flatten)           (None, 6400)              0         
                                                                 
 dense1 (Dense)              (None, 512)               3277312   
                                                                 
 dense2 (Dense)              (None, 2)                 1026      
                                                                 
=================================================================
Total params: 3278930 (12.51 MB)
Trainable params: 3278930 (12.51 MB)
Non-trainable params: 0 (0.00 Byte)
_________________________________________________________________
Model: "my_net"
_________________________________________________________________
 Layer (type)                Output Shape              Param #   
=================================================================
 conv_1 (Conv2D)             (None, 40, 40, 16)        592       
                                                                 
 relu_1 (Activation)         (None, 40, 40, 16)        0         
                                                                 
 padding_1 (MaxPooling2D)    (None, 20, 20, 16)        0         
                                                                 
 flatten (Flatten)           (None, 6400)              0         
                                                                 
 dense1 (Dense)              (None, 512)               3277312   
                                                                 
 dense2 (Dense)              (None, 2)                 1026      
                                                                 
=================================================================
Total params: 3278930 (12.51 MB)
Trainable params: 3278930 (12.51 MB)
Non-trainable params: 0 (0.00 Byte)
_________________________________________________________________
Model: "my_net"
_________________________________________________________________
 Layer (type)                Output Shape              Param #   
=================================================================
 conv_1 (Conv2D)             (None, 40, 40, 16)        592       
                                                                 
 relu_1 (Activation)         (None, 40, 40, 16)        0         
                                                                 
 padding_1 (MaxPooling2D)    (None, 20, 20, 16)        0         
                                                                 
 flatten (Flatten)           (None, 6400)              0         
                                                                 
 dense1 (Dense)              (None, 512)               3277312   
                                                                 
 dense2 (Dense)              (None, 2)                 1026      
                                                                 
=================================================================
Total params: 3278930 (12.51 MB)
Trainable params: 3278930 (12.51 MB)
Non-trainable params: 0 (0.00 Byte)
_________________________________________________________________
Model: "my_net"
_________________________________________________________________
 Layer (type)                Output Shape              Param #   
=================================================================
 conv_1 (Conv2D)             (None, 40, 40, 16)        592       
                                                                 
 relu_1 (Activation)         (None, 40, 40, 16)        0         
                                                                 
 padding_1 (MaxPooling2D)    (None, 20, 20, 16)        0         
                                                                 
 flatten (Flatten)           (None, 6400)              0         
                                                                 
 dense1 (Dense)              (None, 512)               3277312   
                                                                 
 dense2 (Dense)              (None, 2)                 1026      
                                                                 
=================================================================
Total params: 3278930 (12.51 MB)
Trainable params: 3278930 (12.51 MB)
Non-trainable params: 0 (0.00 Byte)
_________________________________________________________________
Model: "my_net"
_________________________________________________________________
 Layer (type)                Output Shape              Param #   
=================================================================
 conv_1 (Conv2D)             (None, 40, 40, 16)        592       
                                                                 
 relu_1 (Activation)         (None, 40, 40, 16)        0         
                                                                 
 padding_1 (MaxPooling2D)    (None, 20, 20, 16)        0         
                                                                 
 flatten (Flatten)           (None, 6400)              0         
                                                                 
 dense1 (Dense)              (None, 512)               3277312   
                                                                 
 dense2 (Dense)              (None, 2)                 1026      
                                                                 
=================================================================
Total params: 3278930 (12.51 MB)
Trainable params: 3278930 (12.51 MB)
Non-trainable params: 0 (0.00 Byte)
_________________________________________________________________
Model: "my_net"
_________________________________________________________________
 Layer (type)                Output Shape              Param #   
=================================================================
 conv_1 (Conv2D)             (None, 40, 40, 16)        592       
                                                                 
 relu_1 (Activation)         (None, 40, 40, 16)        0         
                                                                 
 padding_1 (MaxPooling2D)    (None, 20, 20, 16)        0         
                                                                 
 flatten (Flatten)           (None, 6400)              0         
                                                                 
 dense1 (Dense)              (None, 512)               3277312   
                                                                 
 dense2 (Dense)              (None, 2)                 1026      
                                                                 
=================================================================
Total params: 3278930 (12.51 MB)
Trainable params: 3278930 (12.51 MB)
Non-trainable params: 0 (0.00 Byte)
_________________________________________________________________
