Model: "my_net"
_________________________________________________________________
 Layer (type)                Output Shape              Param #   
=================================================================
 conv_1 (Conv2D)             (None, 40, 40, 16)        592       
                                                                 
 relu_1 (Activation)         (None, 40, 40, 16)        0         
                                                                 
 padding_1 (MaxPooling2D)    (None, 20, 20, 16)        0         
                                                                 
 flatten (Flatten)           (None, 6400)              0         
                                                                 
 dense1 (Dense)              (None, 512)               3277312   
                                                                 
 dense2 (Dense)              (None, 2)                 1026      
                                                                 
=================================================================
Total params: 3278930 (12.51 MB)
Trainable params: 3278930 (12.51 MB)
Non-trainable params: 0 (0.00 Byte)
_________________________________________________________________
Model: "my_net"
_________________________________________________________________
 Layer (type)                Output Shape              Param #   
=================================================================
 conv_1 (Conv2D)             (None, 40, 40, 16)        592       
                                                                 
 relu_1 (Activation)         (None, 40, 40, 16)        0         
                                                                 
 padding_1 (MaxPooling2D)    (None, 20, 20, 16)        0         
                                                                 
 flatten (Flatten)           (None, 6400)              0         
                                                                 
 dense1 (Dense)              (None, 512)               3277312   
                                                                 
 dense2 (Dense)              (None, 2)                 1026      
                                                                 
=================================================================
Total params: 3278930 (12.51 MB)
Trainable params: 3278930 (12.51 MB)
Non-trainable params: 0 (0.00 Byte)
_________________________________________________________________
Model: "my_net"
_________________________________________________________________
 Layer (type)                Output Shape              Param #   
=================================================================
 conv_1 (Conv2D)             (None, 40, 40, 16)        592       
                                                                 
 relu_1 (Activation)         (None, 40, 40, 16)        0         
                                                                 
 padding_1 (MaxPooling2D)    (None, 20, 20, 16)        0         
                                                                 
 flatten (Flatten)           (None, 6400)              0         
                                                                 
 dense1 (Dense)              (None, 512)               3277312   
                                                                 
 dense2 (Dense)              (None, 2)                 1026      
                                                                 
=================================================================
Total params: 3278930 (12.51 MB)
Trainable params: 3278930 (12.51 MB)
Non-trainable params: 0 (0.00 Byte)
_________________________________________________________________
Model: "my_net"
_________________________________________________________________
 Layer (type)                Output Shape              Param #   
=================================================================
<<<<<<< HEAD
 conv_1 (Conv2D)             (None, 50, 30, 16)        592       
                                                                 
 relu_1 (Activation)         (None, 50, 30, 16)        0         
                                                                 
 padding_1 (MaxPooling2D)    (None, 25, 15, 16)        0         
                                                                 
 flatten (Flatten)           (None, 6000)              0         
                                                                 
 dense1 (Dense)              (None, 512)               3072512   
=======
 conv_1 (Conv2D)             (None, 40, 40, 16)        592       
                                                                 
 relu_1 (Activation)         (None, 40, 40, 16)        0         
                                                                 
 padding_1 (MaxPooling2D)    (None, 20, 20, 16)        0         
                                                                 
 flatten (Flatten)           (None, 6400)              0         
                                                                 
 dense1 (Dense)              (None, 512)               3277312   
>>>>>>> 7fabc1a4a05c4bde46f5f194ddbbb01853fea7d0
                                                                 
 dense2 (Dense)              (None, 2)                 1026      
                                                                 
=================================================================
<<<<<<< HEAD
Total params: 3074130 (11.73 MB)
Trainable params: 3074130 (11.73 MB)
Non-trainable params: 0 (0.00 Byte)
_________________________________________________________________
Model: "my_net"
_________________________________________________________________
 Layer (type)                Output Shape              Param #   
=================================================================
 conv_1 (Conv2D)             (None, 50, 30, 16)        592       
                                                                 
 relu_1 (Activation)         (None, 50, 30, 16)        0         
                                                                 
 padding_1 (MaxPooling2D)    (None, 25, 15, 16)        0         
                                                                 
 flatten (Flatten)           (None, 6000)              0         
                                                                 
 dense1 (Dense)              (None, 512)               3072512   
                                                                 
 dense2 (Dense)              (None, 2)                 1026      
                                                                 
=================================================================
Total params: 3074130 (11.73 MB)
Trainable params: 3074130 (11.73 MB)
Non-trainable params: 0 (0.00 Byte)
_________________________________________________________________
Model: "my_net"
_________________________________________________________________
 Layer (type)                Output Shape              Param #   
=================================================================
 conv_1 (Conv2D)             (None, 50, 30, 16)        592       
                                                                 
 relu_1 (Activation)         (None, 50, 30, 16)        0         
                                                                 
 padding_1 (MaxPooling2D)    (None, 25, 15, 16)        0         
                                                                 
 flatten (Flatten)           (None, 6000)              0         
                                                                 
 dense1 (Dense)              (None, 512)               3072512   
                                                                 
 dense2 (Dense)              (None, 2)                 1026      
                                                                 
=================================================================
Total params: 3074130 (11.73 MB)
Trainable params: 3074130 (11.73 MB)
Non-trainable params: 0 (0.00 Byte)
_________________________________________________________________
Model: "my_net"
_________________________________________________________________
 Layer (type)                Output Shape              Param #   
=================================================================
 conv_1 (Conv2D)             (None, 50, 30, 16)        592       
                                                                 
 relu_1 (Activation)         (None, 50, 30, 16)        0         
                                                                 
 padding_1 (MaxPooling2D)    (None, 25, 15, 16)        0         
                                                                 
 flatten (Flatten)           (None, 6000)              0         
                                                                 
 dense1 (Dense)              (None, 512)               3072512   
                                                                 
 dense2 (Dense)              (None, 2)                 1026      
                                                                 
=================================================================
Total params: 3074130 (11.73 MB)
Trainable params: 3074130 (11.73 MB)
Non-trainable params: 0 (0.00 Byte)
_________________________________________________________________
Model: "my_net"
_________________________________________________________________
 Layer (type)                Output Shape              Param #   
=================================================================
 conv_1 (Conv2D)             (None, 50, 30, 16)        592       
                                                                 
 relu_1 (Activation)         (None, 50, 30, 16)        0         
                                                                 
 padding_1 (MaxPooling2D)    (None, 25, 15, 16)        0         
                                                                 
 flatten (Flatten)           (None, 6000)              0         
                                                                 
 dense1 (Dense)              (None, 512)               3072512   
                                                                 
 dense2 (Dense)              (None, 2)                 1026      
                                                                 
=================================================================
Total params: 3074130 (11.73 MB)
Trainable params: 3074130 (11.73 MB)
Non-trainable params: 0 (0.00 Byte)
_________________________________________________________________
Model: "my_net"
_________________________________________________________________
 Layer (type)                Output Shape              Param #   
=================================================================
 conv_1 (Conv2D)             (None, 50, 30, 16)        592       
                                                                 
 relu_1 (Activation)         (None, 50, 30, 16)        0         
                                                                 
 padding_1 (MaxPooling2D)    (None, 25, 15, 16)        0         
                                                                 
 flatten (Flatten)           (None, 6000)              0         
                                                                 
 dense1 (Dense)              (None, 512)               3072512   
                                                                 
 dense2 (Dense)              (None, 2)                 1026      
                                                                 
=================================================================
Total params: 3074130 (11.73 MB)
Trainable params: 3074130 (11.73 MB)
=======
Total params: 3278930 (12.51 MB)
Trainable params: 3278930 (12.51 MB)
>>>>>>> 7fabc1a4a05c4bde46f5f194ddbbb01853fea7d0
Non-trainable params: 0 (0.00 Byte)
_________________________________________________________________
Model: "my_net"
_________________________________________________________________
 Layer (type)                Output Shape              Param #   
=================================================================
 conv_1 (Conv2D)             (None, 50, 30, 16)        592       
                                                                 
 relu_1 (Activation)         (None, 50, 30, 16)        0         
                                                                 
 padding_1 (MaxPooling2D)    (None, 25, 15, 16)        0         
                                                                 
 flatten (Flatten)           (None, 6000)              0         
                                                                 
 dense1 (Dense)              (None, 512)               3072512   
                                                                 
 dense2 (Dense)              (None, 2)                 1026      
                                                                 
=================================================================
Total params: 3074130 (11.73 MB)
Trainable params: 3074130 (11.73 MB)
Non-trainable params: 0 (0.00 Byte)
_________________________________________________________________
Model: "my_net"
_________________________________________________________________
 Layer (type)                Output Shape              Param #   
=================================================================
 conv_1 (Conv2D)             (None, 40, 40, 16)        592       
                                                                 
 relu_1 (Activation)         (None, 40, 40, 16)        0         
                                                                 
 padding_1 (MaxPooling2D)    (None, 20, 20, 16)        0         
                                                                 
 flatten (Flatten)           (None, 6400)              0         
                                                                 
 dense1 (Dense)              (None, 512)               3277312   
                                                                 
 dense2 (Dense)              (None, 2)                 1026      
                                                                 
=================================================================
Total params: 3278930 (12.51 MB)
Trainable params: 3278930 (12.51 MB)
Non-trainable params: 0 (0.00 Byte)
_________________________________________________________________
Model: "my_net"
_________________________________________________________________
 Layer (type)                Output Shape              Param #   
=================================================================
 conv_1 (Conv2D)             (None, 40, 40, 16)        592       
                                                                 
 relu_1 (Activation)         (None, 40, 40, 16)        0         
                                                                 
 padding_1 (MaxPooling2D)    (None, 20, 20, 16)        0         
                                                                 
 flatten (Flatten)           (None, 6400)              0         
                                                                 
 dense1 (Dense)              (None, 512)               3277312   
                                                                 
 dense2 (Dense)              (None, 2)                 1026      
                                                                 
=================================================================
Total params: 3278930 (12.51 MB)
Trainable params: 3278930 (12.51 MB)
Non-trainable params: 0 (0.00 Byte)
_________________________________________________________________
Model: "my_net"
_________________________________________________________________
 Layer (type)                Output Shape              Param #   
=================================================================
 conv_1 (Conv2D)             (None, 40, 40, 16)        592       
                                                                 
 relu_1 (Activation)         (None, 40, 40, 16)        0         
                                                                 
 padding_1 (MaxPooling2D)    (None, 20, 20, 16)        0         
                                                                 
 flatten (Flatten)           (None, 6400)              0         
                                                                 
 dense1 (Dense)              (None, 512)               3277312   
                                                                 
 dense2 (Dense)              (None, 2)                 1026      
                                                                 
=================================================================
Total params: 3278930 (12.51 MB)
Trainable params: 3278930 (12.51 MB)
Non-trainable params: 0 (0.00 Byte)
_________________________________________________________________
Model: "my_net"
_________________________________________________________________
 Layer (type)                Output Shape              Param #   
=================================================================
 conv_1 (Conv2D)             (None, 40, 40, 16)        592       
                                                                 
 relu_1 (Activation)         (None, 40, 40, 16)        0         
                                                                 
 padding_1 (MaxPooling2D)    (None, 20, 20, 16)        0         
                                                                 
 flatten (Flatten)           (None, 6400)              0         
                                                                 
 dense1 (Dense)              (None, 512)               3277312   
                                                                 
 dense2 (Dense)              (None, 2)                 1026      
                                                                 
=================================================================
Total params: 3278930 (12.51 MB)
Trainable params: 3278930 (12.51 MB)
Non-trainable params: 0 (0.00 Byte)
_________________________________________________________________
Model: "my_net"
_________________________________________________________________
 Layer (type)                Output Shape              Param #   
=================================================================
 conv_1 (Conv2D)             (None, 40, 40, 16)        592       
                                                                 
 relu_1 (Activation)         (None, 40, 40, 16)        0         
                                                                 
 padding_1 (MaxPooling2D)    (None, 20, 20, 16)        0         
                                                                 
 flatten (Flatten)           (None, 6400)              0         
                                                                 
 dense1 (Dense)              (None, 512)               3277312   
                                                                 
 dense2 (Dense)              (None, 2)                 1026      
                                                                 
=================================================================
Total params: 3278930 (12.51 MB)
Trainable params: 3278930 (12.51 MB)
Non-trainable params: 0 (0.00 Byte)
_________________________________________________________________
Model: "my_net"
_________________________________________________________________
 Layer (type)                Output Shape              Param #   
=================================================================
 conv_1 (Conv2D)             (None, 40, 40, 16)        592       
                                                                 
 relu_1 (Activation)         (None, 40, 40, 16)        0         
                                                                 
 padding_1 (MaxPooling2D)    (None, 20, 20, 16)        0         
                                                                 
 flatten (Flatten)           (None, 6400)              0         
                                                                 
 dense1 (Dense)              (None, 512)               3277312   
                                                                 
 dense2 (Dense)              (None, 2)                 1026      
                                                                 
=================================================================
Total params: 3278930 (12.51 MB)
Trainable params: 3278930 (12.51 MB)
Non-trainable params: 0 (0.00 Byte)
_________________________________________________________________
Model: "my_net"
_________________________________________________________________
 Layer (type)                Output Shape              Param #   
=================================================================
 conv_1 (Conv2D)             (None, 40, 40, 16)        592       
                                                                 
 relu_1 (Activation)         (None, 40, 40, 16)        0         
                                                                 
 padding_1 (MaxPooling2D)    (None, 20, 20, 16)        0         
                                                                 
 flatten (Flatten)           (None, 6400)              0         
                                                                 
 dense1 (Dense)              (None, 512)               3277312   
                                                                 
 dense2 (Dense)              (None, 2)                 1026      
                                                                 
=================================================================
Total params: 3278930 (12.51 MB)
Trainable params: 3278930 (12.51 MB)
Non-trainable params: 0 (0.00 Byte)
_________________________________________________________________
Model: "my_net"
_________________________________________________________________
 Layer (type)                Output Shape              Param #   
=================================================================
 conv_1 (Conv2D)             (None, 40, 40, 16)        592       
                                                                 
 relu_1 (Activation)         (None, 40, 40, 16)        0         
                                                                 
 padding_1 (MaxPooling2D)    (None, 20, 20, 16)        0         
                                                                 
 flatten (Flatten)           (None, 6400)              0         
                                                                 
 dense1 (Dense)              (None, 512)               3277312   
                                                                 
 dense2 (Dense)              (None, 2)                 1026      
                                                                 
=================================================================
Total params: 3278930 (12.51 MB)
Trainable params: 3278930 (12.51 MB)
Non-trainable params: 0 (0.00 Byte)
_________________________________________________________________
Model: "my_net"
_________________________________________________________________
 Layer (type)                Output Shape              Param #   
=================================================================
 conv_1 (Conv2D)             (None, 40, 40, 16)        592       
                                                                 
 relu_1 (Activation)         (None, 40, 40, 16)        0         
                                                                 
 padding_1 (MaxPooling2D)    (None, 20, 20, 16)        0         
                                                                 
 flatten (Flatten)           (None, 6400)              0         
                                                                 
 dense1 (Dense)              (None, 512)               3277312   
                                                                 
 dense2 (Dense)              (None, 2)                 1026      
                                                                 
=================================================================
Total params: 3278930 (12.51 MB)
Trainable params: 3278930 (12.51 MB)
Non-trainable params: 0 (0.00 Byte)
_________________________________________________________________
Model: "my_net2"
_________________________________________________________________
 Layer (type)                Output Shape              Param #   
=================================================================
 conv_2 (Conv2D)             (None, 80, 80, 32)        1184      
                                                                 
 relu_2 (Activation)         (None, 80, 80, 32)        0         
                                                                 
 padding_2 (MaxPooling2D)    (None, 40, 40, 32)        0         
                                                                 
 conv_1 (Conv2D)             (None, 40, 40, 16)        4624      
                                                                 
 relu_1 (Activation)         (None, 40, 40, 16)        0         
                                                                 
 padding_1 (MaxPooling2D)    (None, 20, 20, 16)        0         
                                                                 
 flatten_1 (Flatten)         (None, 6400)              0         
                                                                 
 dense1 (Dense)              (None, 512)               3277312   
                                                                 
 dense2 (Dense)              (None, 2)                 1026      
                                                                 
=================================================================
Total params: 3284146 (12.53 MB)
Trainable params: 1184 (4.62 KB)
Non-trainable params: 3282962 (12.52 MB)
_________________________________________________________________
Model: "my_net2"
_________________________________________________________________
 Layer (type)                Output Shape              Param #   
=================================================================
 conv_2 (Conv2D)             (None, 80, 80, 32)        1184      
                                                                 
 relu_2 (Activation)         (None, 80, 80, 32)        0         
                                                                 
 padding_2 (MaxPooling2D)    (None, 40, 40, 32)        0         
                                                                 
 conv_1 (Conv2D)             (None, 40, 40, 16)        4624      
                                                                 
 relu_1 (Activation)         (None, 40, 40, 16)        0         
                                                                 
 padding_1 (MaxPooling2D)    (None, 20, 20, 16)        0         
                                                                 
 flatten (Flatten)           (None, 6400)              0         
                                                                 
 dense1 (Dense)              (None, 512)               3277312   
                                                                 
 dense2 (Dense)              (None, 2)                 1026      
                                                                 
=================================================================
Total params: 3284146 (12.53 MB)
Trainable params: 1184 (4.62 KB)
Non-trainable params: 3282962 (12.52 MB)
_________________________________________________________________
Model: "my_net2"
_________________________________________________________________
 Layer (type)                Output Shape              Param #   
=================================================================
 conv_2 (Conv2D)             (None, 80, 80, 32)        1184      
                                                                 
 relu_2 (Activation)         (None, 80, 80, 32)        0         
                                                                 
 padding_2 (MaxPooling2D)    (None, 40, 40, 32)        0         
                                                                 
 conv_1 (Conv2D)             (None, 40, 40, 16)        4624      
                                                                 
 relu_1 (Activation)         (None, 40, 40, 16)        0         
                                                                 
 padding_1 (MaxPooling2D)    (None, 20, 20, 16)        0         
                                                                 
 flatten (Flatten)           (None, 6400)              0         
                                                                 
 dense1 (Dense)              (None, 512)               3277312   
                                                                 
 dense2 (Dense)              (None, 2)                 1026      
                                                                 
=================================================================
Total params: 3284146 (12.53 MB)
Trainable params: 3284146 (12.53 MB)
Non-trainable params: 0 (0.00 Byte)
_________________________________________________________________
Model: "my_net2"
_________________________________________________________________
 Layer (type)                Output Shape              Param #   
=================================================================
 conv_2 (Conv2D)             (None, 80, 80, 32)        1184      
                                                                 
 relu_2 (Activation)         (None, 80, 80, 32)        0         
                                                                 
 padding_2 (MaxPooling2D)    (None, 40, 40, 32)        0         
                                                                 
 conv_1 (Conv2D)             (None, 40, 40, 16)        4624      
                                                                 
 relu_1 (Activation)         (None, 40, 40, 16)        0         
                                                                 
 padding_1 (MaxPooling2D)    (None, 20, 20, 16)        0         
                                                                 
 flatten (Flatten)           (None, 6400)              0         
                                                                 
 dense1 (Dense)              (None, 512)               3277312   
                                                                 
 dense2 (Dense)              (None, 2)                 1026      
                                                                 
=================================================================
Total params: 3284146 (12.53 MB)
Trainable params: 3284146 (12.53 MB)
Non-trainable params: 0 (0.00 Byte)
_________________________________________________________________
Model: "my_net2"
_________________________________________________________________
 Layer (type)                Output Shape              Param #   
=================================================================
 conv_2 (Conv2D)             (None, 80, 80, 32)        1184      
                                                                 
 relu_2 (Activation)         (None, 80, 80, 32)        0         
                                                                 
 padding_2 (MaxPooling2D)    (None, 40, 40, 32)        0         
                                                                 
 conv_1 (Conv2D)             (None, 40, 40, 16)        4624      
                                                                 
 relu_1 (Activation)         (None, 40, 40, 16)        0         
                                                                 
 padding_1 (MaxPooling2D)    (None, 20, 20, 16)        0         
                                                                 
 flatten (Flatten)           (None, 6400)              0         
                                                                 
 dense1 (Dense)              (None, 512)               3277312   
                                                                 
 dense2 (Dense)              (None, 2)                 1026      
                                                                 
=================================================================
Total params: 3284146 (12.53 MB)
Trainable params: 3284146 (12.53 MB)
Non-trainable params: 0 (0.00 Byte)
_________________________________________________________________
Model: "my_net2"
_________________________________________________________________
 Layer (type)                Output Shape              Param #   
=================================================================
 conv_2 (Conv2D)             (None, 80, 80, 32)        1184      
                                                                 
 relu_2 (Activation)         (None, 80, 80, 32)        0         
                                                                 
 padding_2 (MaxPooling2D)    (None, 40, 40, 32)        0         
                                                                 
 conv_1 (Conv2D)             (None, 40, 40, 16)        4624      
                                                                 
 relu_1 (Activation)         (None, 40, 40, 16)        0         
                                                                 
 padding_1 (MaxPooling2D)    (None, 20, 20, 16)        0         
                                                                 
 flatten (Flatten)           (None, 6400)              0         
                                                                 
 dense1 (Dense)              (None, 512)               3277312   
                                                                 
 dense2 (Dense)              (None, 2)                 1026      
                                                                 
=================================================================
Total params: 3284146 (12.53 MB)
Trainable params: 3284146 (12.53 MB)
Non-trainable params: 0 (0.00 Byte)
_________________________________________________________________
Model: "my_net2"
_________________________________________________________________
 Layer (type)                Output Shape              Param #   
=================================================================
 conv_2 (Conv2D)             (None, 80, 80, 32)        1184      
                                                                 
 relu_2 (Activation)         (None, 80, 80, 32)        0         
                                                                 
 padding_2 (MaxPooling2D)    (None, 40, 40, 32)        0         
                                                                 
 conv_1 (Conv2D)             (None, 40, 40, 16)        4624      
                                                                 
 relu_1 (Activation)         (None, 40, 40, 16)        0         
                                                                 
 padding_1 (MaxPooling2D)    (None, 20, 20, 16)        0         
                                                                 
 flatten (Flatten)           (None, 6400)              0         
                                                                 
 dense1 (Dense)              (None, 512)               3277312   
                                                                 
 dense2 (Dense)              (None, 2)                 1026      
                                                                 
=================================================================
Total params: 3284146 (12.53 MB)
Trainable params: 3284146 (12.53 MB)
Non-trainable params: 0 (0.00 Byte)
_________________________________________________________________
Model: "my_net2"
_________________________________________________________________
 Layer (type)                Output Shape              Param #   
=================================================================
 conv_2 (Conv2D)             (None, 80, 80, 32)        1184      
                                                                 
 relu_2 (Activation)         (None, 80, 80, 32)        0         
                                                                 
 padding_2 (MaxPooling2D)    (None, 40, 40, 32)        0         
                                                                 
 conv_1 (Conv2D)             (None, 40, 40, 16)        4624      
                                                                 
 relu_1 (Activation)         (None, 40, 40, 16)        0         
                                                                 
 padding_1 (MaxPooling2D)    (None, 20, 20, 16)        0         
                                                                 
 flatten (Flatten)           (None, 6400)              0         
                                                                 
 dense1 (Dense)              (None, 512)               3277312   
                                                                 
 dense2 (Dense)              (None, 2)                 1026      
                                                                 
=================================================================
Total params: 3284146 (12.53 MB)
Trainable params: 3284146 (12.53 MB)
Non-trainable params: 0 (0.00 Byte)
_________________________________________________________________
Model: "my_net2"
_________________________________________________________________
 Layer (type)                Output Shape              Param #   
=================================================================
 conv_2 (Conv2D)             (None, 80, 80, 32)        1184      
                                                                 
 relu_2 (Activation)         (None, 80, 80, 32)        0         
                                                                 
 padding_2 (MaxPooling2D)    (None, 40, 40, 32)        0         
                                                                 
 conv_1 (Conv2D)             (None, 40, 40, 16)        4624      
                                                                 
 relu_1 (Activation)         (None, 40, 40, 16)        0         
                                                                 
 padding_1 (MaxPooling2D)    (None, 20, 20, 16)        0         
                                                                 
 flatten (Flatten)           (None, 6400)              0         
                                                                 
 dense1 (Dense)              (None, 512)               3277312   
                                                                 
 dense2 (Dense)              (None, 2)                 1026      
                                                                 
=================================================================
Total params: 3284146 (12.53 MB)
Trainable params: 1184 (4.62 KB)
Non-trainable params: 3282962 (12.52 MB)
_________________________________________________________________
Model: "my_net"
_________________________________________________________________
 Layer (type)                Output Shape              Param #   
=================================================================
 conv_1 (Conv2D)             (None, 40, 40, 16)        592       
                                                                 
 relu_1 (Activation)         (None, 40, 40, 16)        0         
                                                                 
 padding_1 (MaxPooling2D)    (None, 20, 20, 16)        0         
                                                                 
 flatten (Flatten)           (None, 6400)              0         
                                                                 
 dense1 (Dense)              (None, 512)               3277312   
                                                                 
 dense2 (Dense)              (None, 2)                 1026      
                                                                 
=================================================================
Total params: 3278930 (12.51 MB)
Trainable params: 3278930 (12.51 MB)
Non-trainable params: 0 (0.00 Byte)
_________________________________________________________________
Model: "my_net"
_________________________________________________________________
 Layer (type)                Output Shape              Param #   
=================================================================
 conv_1 (Conv2D)             (None, 40, 40, 16)        592       
                                                                 
 relu_1 (Activation)         (None, 40, 40, 16)        0         
                                                                 
 padding_1 (MaxPooling2D)    (None, 20, 20, 16)        0         
                                                                 
 flatten (Flatten)           (None, 6400)              0         
                                                                 
 dense1 (Dense)              (None, 512)               3277312   
                                                                 
 dense2 (Dense)              (None, 2)                 1026      
                                                                 
=================================================================
Total params: 3278930 (12.51 MB)
Trainable params: 3278930 (12.51 MB)
Non-trainable params: 0 (0.00 Byte)
_________________________________________________________________
Model: "my_net2"
_________________________________________________________________
 Layer (type)                Output Shape              Param #   
=================================================================
 conv_2 (Conv2D)             (None, 80, 80, 32)        1184      
                                                                 
 relu_2 (Activation)         (None, 80, 80, 32)        0         
                                                                 
 padding_2 (MaxPooling2D)    (None, 40, 40, 32)        0         
                                                                 
 conv_1 (Conv2D)             (None, 40, 40, 16)        4624      
                                                                 
 relu_1 (Activation)         (None, 40, 40, 16)        0         
                                                                 
 padding_1 (MaxPooling2D)    (None, 20, 20, 16)        0         
                                                                 
 flatten_1 (Flatten)         (None, 6400)              0         
                                                                 
 dense1 (Dense)              (None, 512)               3277312   
                                                                 
 dense2 (Dense)              (None, 2)                 1026      
                                                                 
=================================================================
Total params: 3284146 (12.53 MB)
Trainable params: 1184 (4.62 KB)
Non-trainable params: 3282962 (12.52 MB)
_________________________________________________________________
Model: "my_net2"
_________________________________________________________________
 Layer (type)                Output Shape              Param #   
=================================================================
 conv_2 (Conv2D)             (None, 80, 80, 32)        1184      
                                                                 
 relu_2 (Activation)         (None, 80, 80, 32)        0         
                                                                 
 padding_2 (MaxPooling2D)    (None, 40, 40, 32)        0         
                                                                 
 conv_1 (Conv2D)             (None, 40, 40, 16)        4624      
                                                                 
 relu_1 (Activation)         (None, 40, 40, 16)        0         
                                                                 
 padding_1 (MaxPooling2D)    (None, 20, 20, 16)        0         
                                                                 
 flatten (Flatten)           (None, 6400)              0         
                                                                 
 dense1 (Dense)              (None, 512)               3277312   
                                                                 
 dense2 (Dense)              (None, 2)                 1026      
                                                                 
=================================================================
Total params: 3284146 (12.53 MB)
Trainable params: 3284146 (12.53 MB)
Non-trainable params: 0 (0.00 Byte)
_________________________________________________________________
Model: "my_net2"
_________________________________________________________________
 Layer (type)                Output Shape              Param #   
=================================================================
 conv_2 (Conv2D)             (None, 80, 80, 32)        1184      
                                                                 
 relu_2 (Activation)         (None, 80, 80, 32)        0         
                                                                 
 padding_2 (MaxPooling2D)    (None, 40, 40, 32)        0         
                                                                 
 conv_1 (Conv2D)             (None, 40, 40, 16)        4624      
                                                                 
 relu_1 (Activation)         (None, 40, 40, 16)        0         
                                                                 
 padding_1 (MaxPooling2D)    (None, 20, 20, 16)        0         
                                                                 
 flatten (Flatten)           (None, 6400)              0         
                                                                 
 dense1 (Dense)              (None, 512)               3277312   
                                                                 
 dense2 (Dense)              (None, 2)                 1026      
                                                                 
=================================================================
Total params: 3284146 (12.53 MB)
Trainable params: 3284146 (12.53 MB)
Non-trainable params: 0 (0.00 Byte)
_________________________________________________________________
Model: "my_net2"
_________________________________________________________________
 Layer (type)                Output Shape              Param #   
=================================================================
 conv_2 (Conv2D)             (None, 80, 80, 32)        1184      
                                                                 
 relu_2 (Activation)         (None, 80, 80, 32)        0         
                                                                 
 padding_2 (MaxPooling2D)    (None, 40, 40, 32)        0         
                                                                 
 conv_1 (Conv2D)             (None, 40, 40, 16)        4624      
                                                                 
 relu_1 (Activation)         (None, 40, 40, 16)        0         
                                                                 
 padding_1 (MaxPooling2D)    (None, 20, 20, 16)        0         
                                                                 
 flatten (Flatten)           (None, 6400)              0         
                                                                 
 dense1 (Dense)              (None, 512)               3277312   
                                                                 
 dense2 (Dense)              (None, 2)                 1026      
                                                                 
=================================================================
Total params: 3284146 (12.53 MB)
Trainable params: 3284146 (12.53 MB)
Non-trainable params: 0 (0.00 Byte)
_________________________________________________________________
Model: "my_net2"
_________________________________________________________________
 Layer (type)                Output Shape              Param #   
=================================================================
 conv_2 (Conv2D)             (None, 80, 80, 32)        1184      
                                                                 
 relu_2 (Activation)         (None, 80, 80, 32)        0         
                                                                 
 padding_2 (MaxPooling2D)    (None, 40, 40, 32)        0         
                                                                 
 conv_1 (Conv2D)             (None, 40, 40, 16)        4624      
                                                                 
 relu_1 (Activation)         (None, 40, 40, 16)        0         
                                                                 
 padding_1 (MaxPooling2D)    (None, 20, 20, 16)        0         
                                                                 
 flatten (Flatten)           (None, 6400)              0         
                                                                 
 dense1 (Dense)              (None, 512)               3277312   
                                                                 
 dense2 (Dense)              (None, 2)                 1026      
                                                                 
=================================================================
Total params: 3284146 (12.53 MB)
Trainable params: 1184 (4.62 KB)
Non-trainable params: 3282962 (12.52 MB)
_________________________________________________________________
Model: "my_net"
_________________________________________________________________
 Layer (type)                Output Shape              Param #   
=================================================================
 conv_1 (Conv2D)             (None, 80, 80, 16)        592       
                                                                 
 relu_1 (Activation)         (None, 80, 80, 16)        0         
                                                                 
 padding_1 (MaxPooling2D)    (None, 40, 40, 16)        0         
                                                                 
 flatten (Flatten)           (None, 25600)             0         
                                                                 
 dense1 (Dense)              (None, 512)               13107712  
                                                                 
 dense2 (Dense)              (None, 2)                 1026      
                                                                 
=================================================================
Total params: 13109330 (50.01 MB)
Trainable params: 13109330 (50.01 MB)
Non-trainable params: 0 (0.00 Byte)
_________________________________________________________________
Model: "my_net"
_________________________________________________________________
 Layer (type)                Output Shape              Param #   
=================================================================
 conv_1 (Conv2D)             (None, 80, 80, 16)        592       
                                                                 
 relu_1 (Activation)         (None, 80, 80, 16)        0         
                                                                 
 padding_1 (MaxPooling2D)    (None, 40, 40, 16)        0         
                                                                 
 flatten (Flatten)           (None, 25600)             0         
                                                                 
 dense1 (Dense)              (None, 512)               13107712  
                                                                 
 dense2 (Dense)              (None, 2)                 1026      
                                                                 
=================================================================
Total params: 13109330 (50.01 MB)
Trainable params: 13109330 (50.01 MB)
Non-trainable params: 0 (0.00 Byte)
_________________________________________________________________
Model: "my_net"
_________________________________________________________________
 Layer (type)                Output Shape              Param #   
=================================================================
 conv_1 (Conv2D)             (None, 80, 80, 16)        592       
                                                                 
 relu_1 (Activation)         (None, 80, 80, 16)        0         
                                                                 
 padding_1 (MaxPooling2D)    (None, 40, 40, 16)        0         
                                                                 
 flatten (Flatten)           (None, 25600)             0         
                                                                 
 dense1 (Dense)              (None, 512)               13107712  
                                                                 
 dense2 (Dense)              (None, 2)                 1026      
                                                                 
=================================================================
Total params: 13109330 (50.01 MB)
Trainable params: 13109330 (50.01 MB)
Non-trainable params: 0 (0.00 Byte)
_________________________________________________________________
Model: "my_net"
_________________________________________________________________
 Layer (type)                Output Shape              Param #   
=================================================================
 conv_1 (Conv2D)             (None, 80, 80, 16)        592       
                                                                 
 relu_1 (Activation)         (None, 80, 80, 16)        0         
                                                                 
 padding_1 (MaxPooling2D)    (None, 40, 40, 16)        0         
                                                                 
 flatten (Flatten)           (None, 25600)             0         
                                                                 
 dense1 (Dense)              (None, 512)               13107712  
                                                                 
 dense2 (Dense)              (None, 2)                 1026      
                                                                 
=================================================================
Total params: 13109330 (50.01 MB)
Trainable params: 13109330 (50.01 MB)
Non-trainable params: 0 (0.00 Byte)
_________________________________________________________________
Model: "my_net"
_________________________________________________________________
 Layer (type)                Output Shape              Param #   
=================================================================
 conv_1 (Conv2D)             (None, 80, 80, 16)        592       
                                                                 
 relu_1 (Activation)         (None, 80, 80, 16)        0         
                                                                 
 padding_1 (MaxPooling2D)    (None, 40, 40, 16)        0         
                                                                 
 flatten (Flatten)           (None, 25600)             0         
                                                                 
 dense1 (Dense)              (None, 512)               13107712  
                                                                 
 dense2 (Dense)              (None, 2)                 1026      
                                                                 
=================================================================
Total params: 13109330 (50.01 MB)
Trainable params: 13109330 (50.01 MB)
Non-trainable params: 0 (0.00 Byte)
_________________________________________________________________
Model: "my_net"
_________________________________________________________________
 Layer (type)                Output Shape              Param #   
=================================================================
 conv_1 (Conv2D)             (None, 80, 80, 16)        592       
                                                                 
 relu_1 (Activation)         (None, 80, 80, 16)        0         
                                                                 
 padding_1 (MaxPooling2D)    (None, 40, 40, 16)        0         
                                                                 
 flatten (Flatten)           (None, 25600)             0         
                                                                 
 dense1 (Dense)              (None, 512)               13107712  
                                                                 
 dense2 (Dense)              (None, 2)                 1026      
                                                                 
=================================================================
Total params: 13109330 (50.01 MB)
Trainable params: 13109330 (50.01 MB)
Non-trainable params: 0 (0.00 Byte)
_________________________________________________________________
Model: "my_net"
_________________________________________________________________
 Layer (type)                Output Shape              Param #   
=================================================================
 conv_1 (Conv2D)             (None, 80, 80, 16)        592       
                                                                 
 relu_1 (Activation)         (None, 80, 80, 16)        0         
                                                                 
 padding_1 (MaxPooling2D)    (None, 40, 40, 16)        0         
                                                                 
 flatten (Flatten)           (None, 25600)             0         
                                                                 
 dense1 (Dense)              (None, 512)               13107712  
                                                                 
 dense2 (Dense)              (None, 2)                 1026      
                                                                 
=================================================================
Total params: 13109330 (50.01 MB)
Trainable params: 13109330 (50.01 MB)
Non-trainable params: 0 (0.00 Byte)
_________________________________________________________________
Model: "my_net"
_________________________________________________________________
 Layer (type)                Output Shape              Param #   
=================================================================
 conv_1 (Conv2D)             (None, 80, 80, 16)        592       
                                                                 
 relu_1 (Activation)         (None, 80, 80, 16)        0         
                                                                 
 padding_1 (MaxPooling2D)    (None, 40, 40, 16)        0         
                                                                 
 flatten (Flatten)           (None, 25600)             0         
                                                                 
 dense1 (Dense)              (None, 512)               13107712  
                                                                 
 dense2 (Dense)              (None, 2)                 1026      
                                                                 
=================================================================
Total params: 13109330 (50.01 MB)
Trainable params: 13109330 (50.01 MB)
Non-trainable params: 0 (0.00 Byte)
_________________________________________________________________
Model: "my_net"
_________________________________________________________________
 Layer (type)                Output Shape              Param #   
=================================================================
 conv_1 (Conv2D)             (None, 80, 80, 16)        592       
                                                                 
 relu_1 (Activation)         (None, 80, 80, 16)        0         
                                                                 
 padding_1 (MaxPooling2D)    (None, 40, 40, 16)        0         
                                                                 
 flatten (Flatten)           (None, 25600)             0         
                                                                 
 dense1 (Dense)              (None, 512)               13107712  
                                                                 
 dense2 (Dense)              (None, 2)                 1026      
                                                                 
=================================================================
Total params: 13109330 (50.01 MB)
Trainable params: 13109330 (50.01 MB)
Non-trainable params: 0 (0.00 Byte)
_________________________________________________________________
